checkpoints/baseline_model_state_dict.pth (torch, 334071 bytes, 20 tensors)

conv1.weight f4 [64, 3, 3, 3]
0	0xbe426a53	-0.18985872
1	0xbcdc1b9e	-0.026868638
2	0xbd9d1db2	-0.076716796
3	0xbd3857d1	-0.045005623
4	0x3da748bf	0.08168172
5	0x3d0f834f	0.035037335
6	0x3dcafb6f	0.099112384
7	0xbe2fef6e	-0.17181179
8	0xbe2fcc3f	-0.17167757
9	0x3d81c36d	0.06336103
10	0x3e3c9fa3	0.18420272
11	0xbd6e0a21	-0.05811513
12	0x3e3f4aef	0.18680929
13	0x3e46ddc9	0.19420542
14	0xbdaf17cc	-0.08549461
15	0x3d7d543f	0.06184792
16	0xbe037296	-0.1283668
17	0x3b5ff14e	0.0034170928
18	0xbd05261e	-0.032507055
19	0x3e283ccb	0.1642944
20	0xbd14a7cf	-0.036292847
21	0x3e3953ec	0.1809842
22	0x3c2d4b1d	0.01057699
23	0xbdd878b0	-0.10569894
24	0x3c2a9d51	0.010413484
25	0xbc6417f9	-0.013921731
26	0xbe1318d0	-0.14364934
27	0xbe056f30	-0.13030696
28	0x3df65dc2	0.12029602
29	0xbdd582cb	-0.104253374
30	0xbdfa8113	-0.1223165
31	0xbd9898ce	-0.0745102
32	0x3beab10d	0.0071622194
33	0x3dd50460	0.10401225
34	0x3e0ed468	0.13948214
35	0xbc9c2377	-0.01905988
36	0x3e30300b	0.17205827
37	0x3e4d87c2	0.20071319
38	0xbe09b6f6	-0.134487
39	0x3ab860b5	0.0014066907
40	0x3d246fe0	0.040145755
41	0xbe269f80	-0.16271782
42	0xbe16e210	-0.14734674
43	0x3d48b547	0.049001005
44	0xbdc304d5	-0.09522406
45	0x3e432925	0.19058664
46	0x3db0ea67	0.08638459
47	0xbd620807	-0.055183437
48	0xbdb4518d	-0.08804617
49	0xbdf302f1	-0.118657954
50	0xbe30a2f4	-0.17249662
51	0xbda431be	-0.080173
52	0x3d756b31	0.05991668
53	0x3db5239a	0.08844681
54	0xbe3c69f9	-0.183998
55	0xbc863fb7	-0.016387803
56	0xbc9c92b5	-0.019112924
57	0x3dcc0a3e	0.09962891
58	0xbe1c998a	-0.15292946
59	0x3e3cd082	0.18438914
60	0xbc992977	-0.01869653
61	0xbd70e403	-0.0588112
62	0x3d95b64e	0.073101625
63	0xbaa8404a	-0.0012836542
64	0xbddce9cf	-0.10786783
65	0xbb754844	-0.0037427107
66	0xbcf9754c	-0.03045144
67	0x3e14513f	0.14484118
68	0xbd9beb61	-0.07613254
69	0xbe041b8a	-0.1290113
70	0xbe351c0a	-0.17686477
71	0xbd16bf5c	-0.03680359
72	0xbe2e8510	-0.17042947
73	0x3e1757ff	0.14779662
74	0x3cb2eae4	0.02184052
75	0x3d88c6a3	0.06678512
76	0x3bcc6cf1	0.0062385728
77	0xbd380e49	-0.0449355
78	0x3e3e6545	0.18593319
79	0x3e023c44	0.12718302
80	0x3e0d5c80	0.13804817
81	0xbe192ad7	-0.14957748
82	0x3d366439	0.044529174
83	0xbe3d2f93	-0.1847518
84	0xbd55629c	-0.052095994
85	0xbd2a5b41	-0.041590933
86	0xbe02c434	-0.12770158
87	0x3e329d9c	0.17442936
88	0xbdbe2574	-0.09284487
89	0xbcd0ef70	-0.025504798
90	0xbd8e7748	-0.06956345
91	0x3e203a69	0.15647282
92	0x3e36c072	0.1784685
93	0xbe462a59	-0.19352092
94	0xbd907c91	-0.07055009
95	0xbddbf752	-0.10740532
96	0x3d20ec64	0.03928794
97	0x3dd12040	0.10211229
98	0xbd8378b2	-0.06419505
99	0xbe23a97b	-0.1598262
100	0xbddd942c	-0.10819277
101	0xbd474cdd	-0.048657287
102	0xbe1e95b3	-0.15486793
103	0xbd1feb4d	-0.03904276
104	0xbe20d4e1	-0.15706207
105	0x3c647b82	0.013945462
106	0x3e2ba7e7	0.16763268
107	0x3e01a59b	0.1266083
108	0x3c3b13fc	0.011418339
109	0x3d62c30d	0.055361796
110	0x3e142cc0	0.14470196
111	0xbd9dd7a7	-0.07707148
112	0xbe63fb63	-0.22263865
113	0xbd94d678	-0.07267469
114	0xbcc4b625	-0.024012635
115	0x3cbfe335	0.02342377
116	0x3e1daec3	0.15398698
117	0x3d896073	0.06707849
118	0x3ca79716	0.020457786
119	0xbe1d61c5	-0.15369327
120	0xbe3b1cc2	-0.18272689
121	0xbe062584	-0.13100249
122	0x3e04357e	0.1291103
123	0x3de01679	0.10941786
124	0x3de24b5a	0.110495284
125	0xbe25ecfc	-0.16203684
126	0x3caf3596	0.021387856
127	0x3c8517a1	0.016246619
128	0x3da18543	0.07886746
129	0x3e38763e	0.18013856
130	0x3e0b2304	0.13587576
131	0xbe2288d8	-0.15872514
132	0xbbe75107	-0.0070592198
133	0xbe21508d	-0.15753384
134	0x3e206e29	0.15667023
135	0xbdf9d2b5	-0.12198392
136	0x3dd04b49	0.101706095
137	0x3d942bb6	0.072349
138	0xbe15f709	-0.14645018
139	0xbd23f442	-0.040027864
140	0x3e2a66fd	0.1664085
141	0xbdd60bfd	-0.10451505
142	0x3e1eba39	0.15500726
143	0xbe11e295	-0.1424659
144	0xbdc7943a	-0.09745069
145	0xbe080f6d	-0.13287134
146	0xbd608a70	-0.054819524
147	0x3c94f0d4	0.018181242
148	0x3e1475d2	0.1449807
149	0xbdcf9a4e	-0.10136853
150	0xbbf81488	-0.007570807
151	0x3e110ea5	0.14165743
152	0xbddfb163	-0.10922506
153	0x3db2d807	0.0873261
154	0x3de4f65e	0.11179803
155	0x3e200538	0.15626991
156	0x3da77944	0.081774265
157	0x3d2c8858	0.042122215
158	0x3ddb511e	0.10708831
159	0x3e276e36	0.16350636
160	0xbd0ef1b7	-0.034898486
161	0xbe034345	-0.1281863
162	0xbe2eec70	-0.17082381
163	0x3de30377	0.11084645
164	0xbda31e44	-0.07964757
165	0x3e11e5b5	0.14247783
166	0x3d4cf57c	0.0500388
167	0xbdc4f0d5	-0.096162476
168	0xbe095024	-0.13409477
169	0xbdec066e	-0.11524664
170	0x3e2f5ef3	0.17126064
171	0x3e2ffc15	0.17186005
172	0x3da7b51f	0.08188843
173	0xbdc20154	-0.094729096
174	0x3df9c43a	0.1219563
175	0x3e14fb13	0.14548902
176	0x3deeecf0	0.11666286
177	0x3e375cc9	0.17906488
178	0x3e1a88ce	0.1509125
179	0x3d384fe0	0.04499805
180	0x3e3cd881	0.18441965
181	0xbe129f88	-0.14318669
182	0xbd918b86	-0.0710669
183	0x3da8cf30	0.08242643
184	0xbde35732	-0.111006156
185	0xbcecd094	-0.028908052
186	0x3ddacb88	0.10683352
187	0x3a5e059b	0.0008469463
188	0x3e0af3b7	0.13569532
189	0xbd7cda77	-0.06173178
190	0x3e0aa23f	0.13538454
191	0x3c942f4d	0.018088961
192	0x3d939f2d	0.07208095
193	0xbe46a2f7	-0.19398104
194	0x3defdab6	0.11711638
195	0xbd37fdaf	-0.044919666
196	0xbde112ed	-0.10989938
197	0x3d6f071e	0.058356397
198	0x3e33a6e2	0.1754413
199	0xbe20c421	-0.15699817
200	0x3e2410b9	0.16022004
201	0x3de09382	0.10965635
202	0x3e0deb87	0.13859378
203	0xbe1375a5	-0.14400347
204	0xbe1fd941	-0.1561022
205	0x3e017d1e	0.12645385
206	0x3e3d6449	0.18495287
207	0x3e163785	0.14669617
208	0xbcb883a7	-0.022523714
209	0x3e2f186a	0.17099157
210	0xbd1e761d	-0.03868686
211	0x3d0a329d	0.033739675
212	0xbe09a6c3	-0.13442521
213	0xbdd240cd	-0.10266266
214	0xbd508569	-0.05090848
215	0xbdeb74ed	-0.11496911
216	0x3e2ea477	0.17054926
217	0x3cf08007	0.029357923
218	0xbe3cc77b	-0.18435471
219	0xbc7d8424	-0.015473399
220	0x3e073680	0.13204384
221	0xbe06c999	-0.13162841
222	0x3dec44a9	0.115365334
223	0xbd26906d	-0.04066508
224	0xbdd8bba8	-0.105826676
225	0xb9b6033d	-0.00034716158
226	0x3e283baf	0.16429017
227	0x3c7bbb69	0.015364506
228	0xbe409065	-0.18805082
229	0xbe38f390	-0.18061662
230	0xbd5f92fd	-0.05458354
231	0xbd20faac	-0.03930156
232	0x3d7da604	0.061925903
233	0xbe05aded	-0.13054629
234	0x3dcaf36d	0.09909711
235	0x3c8e1ae4	0.017346807
236	0xbe2ca55c	-0.16859955
237	0xbe481a39	-0.19541253
238	0x3e0a184e	0.13485834
239	0x3e327669	0.17427982
240	0xbc84c707	-0.016208185
241	0xbde98a30	-0.1140331
242	0xbda836b0	-0.08213556
243	0xbd72f80c	-0.059318587
244	0xbe306561	-0.17226173
245	0xbd4253f1	-0.047443334
246	0x3e3a3a1b	0.18186228
247	0xbc9daa07	-0.019246114
248	0x3d7c5d96	0.061612688
249	0x3dc64d89	0.096827574
250	0x3c524b07	0.012835271
251	0x3dfa71d6	0.12228744
252	0xbe2c782f	-0.16842721
253	0xbd3a8f27	-0.045546677
254	0xbd5a2b5f	-0.05326402
255	0xbc4a62e9	-0.012352684

conv1.bias f4 [64]
0	0x3e0995c7	0.13436042
1	0xbe00419c	-0.12525028
2	0x3df58a88	0.11989313
3	0xbe24a8e7	-0.16080056
4	0xbbd405af	-0.006470404
5	0x3b5a6f13	0.0033330366
6	0xbd351fe4	-0.044219866
7	0x3d83d94b	0.0643793
8	0x3d0cf489	0.034412894
9	0xbdab9ccf	-0.08379518
10	0xbd895631	-0.06705893
11	0x3d156962	0.036477454
12	0x3dddcae0	0.10829711
13	0x3c9d8b6e	0.019231524
14	0xbcf744ed	-0.030184234
15	0x3ddeed1d	0.108850695
16	0x3dbd34b1	0.09238566
17	0x3e0346b2	0.12819937
18	0x3e0d1fa7	0.13781606
19	0xbdedecc8	-0.11617428
20	0x3cdd72e4	0.027032323
21	0x3d9db08c	0.07699689
22	0xbda1868c	-0.07886991
23	0x3d8709ee	0.06593691
24	0x3db17be1	0.08666206
25	0x39f1d63a	0.00046126713
26	0x3dfea713	0.12434211
27	0xbe1cde41	-0.15319158
28	0xbb23e4d0	-0.002500821
29	0x3d92b119	0.07162685
30	0x3dae8e05	0.08523182
31	0x3dec5c70	0.115410686
32	0xbe237594	-0.15962821
33	0xbe0f694a	-0.14005008
34	0x3cc750ad	0.024330461
35	0xbce394f2	-0.027780984
36	0xbe1e9e5a	-0.15490094
37	0xbd85307b	-0.065033875
38	0xbe0ea4c1	-0.13930036
39	0xbdbd17f8	-0.09233087
40	0xbd9b9f68	-0.07598764
41	0xbe035bdb	-0.12828009
42	0xbd92b8c9	-0.07164151
43	0xbd82dbef	-0.06389605
44	0x3dd32904	0.103105575
45	0x3dda2572	0.106516734
46	0x3e1bb86d	0.15207072
47	0xbe1aa1cb	-0.15100782
48	0xbd12797b	-0.035760384
49	0xbdf843d9	-0.12122316
50	0x3d9eab05	0.07747463
51	0xbd9eb5fb	-0.07749554
52	0xbe0d1a93	-0.13779669
53	0xbe388fef	-0.18023656
54	0xbe315c7f	-0.1732044
55	0x3e195855	0.14975102
56	0xbdfe9e51	-0.1243254
57	0x3c9781c4	0.018494494
58	0x3d1dac44	0.038494363
59	0x3d36a4aa	0.04459063
60	0xbdeb0e02	-0.11477281
61	0xbe17b44f	-0.14814876
62	0xbd826dec	-0.06368622
63	0x3d6d2ba5	0.05790295

bn1.weight f4 [64]
0	0x3f7d650f	0.9898233
1	0x3f7f41a2	0.9970952
2	0x3f7fff96	0.9999937
3	0x3f7faddb	0.9987466
4	0x3f808793	1.0041374
5	0x3f7fb6f8	0.99888563
6	0x3f7f90f3	0.9983055
7	0x3f7ec8e7	0.995253
8	0x3f7f947c	0.99835944
9	0x3f8062c2	1.0030138
10	0x3f7ee190	0.9956293
11	0x3f7e563f	0.9935035
12	0x3f80dc1c	1.0067172
13	0x3f7fc297	0.99906296
14	0x3f81340d	1.009401
15	0x3f806173	1.0029739
16	0x3f7f8abe	0.9982108
17	0x3f7fca41	0.9991799
18	0x3f80f0cc	1.0073485
19	0x3f801a8e	1.0008104
20	0x3f7f8069	0.99805313
21	0x3f7f553b	0.99739426
22	0x3f81810a	1.0117505
23	0x3f804309	1.0020458
24	0x3f7f300a	0.99682677
25	0x3f8029e5	1.0012785
26	0x3f812fdf	1.0092734
27	0x3f803be7	1.0018281
28	0x3f8070d0	1.0034428
29	0x3f7fa2e0	0.998579
30	0x3f7fc6d6	0.99912775
31	0x3f7f8ec2	0.99827206
32	0x3f7e88c8	0.9942746
33	0x3f809e15	1.0048243
34	0x3f7decea	0.9918963
35	0x3f7f6cee	0.9977559
36	0x3f7e318a	0.9929434
37	0x3f80288d	1.0012375
38	0x3f7f79c2	0.9979516
39	0x3f80bd2e	1.0057733
40	0x3f803f18	1.0019255
41	0x3f7f48ab	0.9972026
42	0x3f7e1f4f	0.99266523
43	0x3f7f55df	0.99740404
44	0x3f801607	1.0006722
45	0x3f805e1b	1.0028719
46	0x3f7e7ead	0.9941204
47	0x3f7ff9b0	0.9999037
48	0x3f7e2478	0.99274397
49	0x3f8077b6	1.0036533
50	0x3f7fcc85	0.9992145
51	0x3f7db455	0.9910329
52	0x3f806530	1.003088
53	0x3f7f90db	0.99830407
54	0x3f7f4bfd	0.99725324
55	0x3f7f966a	0.9983889
56	0x3f8190df	1.0122336
57	0x3f8149e4	1.0100675
58	0x3f7ea50c	0.9947059
59	0x3f7fe152	0.99953187
60	0x3f80746e	1.0035532
61	0x3f801112	1.000521
62	0x3f80597a	1.0027306
63	0x3f807613	1.0036033

bn1.bias f4 [64]
0	0xbb16b48b	-0.0022995796
1	0x3b9c7419	0.004774582
2	0xbb996a10	-0.004681833
3	0x3a59caa2	0.00083080877
4	0x3b1d7b62	0.002402984
5	0xba9edc23	-0.0012120049
6	0x3abbcc81	0.0014327915
7	0xbb6208ff	-0.0034490225
8	0xba40fe14	-0.00073620793
9	0xba11a43d	-0.00055557844
10	0x3afe00f5	0.0019378947
11	0x3ad70548	0.0016404772
12	0x3b494c13	0.003071551
13	0xbbf68a95	-0.0075238445
14	0xbc2f683b	-0.010706003
15	0xbae1575b	-0.0017192172
16	0x3c3245f2	0.010880934
17	0xbb83f4ce	-0.0040269857
18	0xbc332f55	-0.010936578
19	0xbb7e7fe3	-0.003883355
20	0xbaedd6d6	-0.0018145691
21	0x3b40ee13	0.0029438778
22	0x3c1df803	0.00964165
23	0xbb84f477	-0.004057463
24	0x3c0ba81f	0.00852397
25	0x3aad4275	0.0013218658
26	0xb9fbd661	-0.00048034175
27	0x3b43fa01	0.0029903653
28	0x3c1b71a2	0.009487541
29	0x3c574d55	0.013140996
30	0xbb272bba	-0.002550824
31	0xbaa40d6f	-0.001251621
32	0xbb8515c1	-0.004061431
33	0xba853499	-0.001016277
34	0xbb173105	-0.002306999
35	0x3baef733	0.005339527
36	0xbb223341	-0.0024749788
37	0xbb16c46c	-0.002300526
38	0xbb6ca6df	-0.0036110205
39	0x3ba9c4f8	0.005180951
40	0xbac391e9	-0.0014920804
41	0x3b82785b	0.0039816326
42	0x3bf10c35	0.0073561915
43	0x3b389e70	0.0028170608
44	0xbbcd8c6a	-0.006272842
45	0x3a997695	0.0011708314
46	0x3b483656	0.0030549965
47	0x3b1de0dc	0.0024090325
48	0xbbfbe68f	-0.007687397
49	0xbbb5c752	-0.0055474425
50	0xbb6abd40	-0.0035818368
51	0x3bed5391	0.007242628
52	0xbaa484cf	-0.0012551787
53	0xba906bab	-0.0011018416
54	0xbbd7cd92	-0.006585785
55	0x3b3ddd22	0.0028970917
56	0xbb0b1797	-0.0021223777
57	0xbc3fd005	-0.011707311
58	0x3b4724a8	0.003038684
59	0xbbb2b865	-0.0054541104
60	0xbc290c33	-0.01031785
61	0x3b15ac69	0.002283836
62	0x3c27abcd	0.010233832
63	0x3ba1ee7f	0.004941761

bn1.running_mean f4 [64]
0	0xbcfdb3ab	-0.030969461
1	0xbe5196ad	-0.20467634
2	0x3e74331b	0.2384762
3	0xbf0398d3	-0.51405066
4	0x3d977f0a	0.07397278
5	0x3e4a9a02	0.19785312
6	0x3c8db316	0.017297309
7	0x3d20404e	0.039123826
8	0xbd64306a	-0.055710234
9	0xbe4bc724	-0.19900185
10	0xbe607260	-0.2191863
11	0xbe823292	-0.25429207
12	0x3ea5569b	0.32292637
13	0x3e14d92e	0.14535972
14	0x3e991354	0.2989756
15	0x3e281f0e	0.16418096
16	0x3e0290cf	0.12750553
17	0xbce52aac	-0.02797445
18	0x3ccded8a	0.025137682
19	0x3c686c98	0.014186047
20	0x3e8ee8c6	0.27911967
21	0x3d4ef830	0.05052966
22	0x3e245330	0.16047359
23	0xbdd6cdf2	-0.104885
24	0xbdad1184	-0.084506065
25	0xbe3c9315	-0.18415482
26	0x3ec3b76b	0.38225874
27	0xbe24becd	-0.1608841
28	0xbdb11dc3	-0.08648255
29	0x3d993a8a	0.074818686
30	0xbe894379	-0.2680929
31	0x3e736c2c	0.23771733
32	0xbddb62da	-0.10712214
33	0xbe210d5f	-0.15727757
34	0x3d827046	0.06369071
35	0xbe7960b9	-0.24353303
36	0xbe6e9fbb	-0.2330312
37	0xbe1482a4	-0.1450296
38	0x3d4a7e2e	0.04943674
39	0xbecb1698	-0.39665675
40	0xbdbd4520	-0.092417
41	0xbd7d83c7	-0.06189325
42	0xbe7d0808	-0.24710095
43	0xbd2fd192	-0.04292447
44	0xbdf4dd21	-0.119562395
45	0x3eef4a85	0.4673654
46	0x3eb511ed	0.3536524
47	0xbe815611	-0.25260976
48	0xbe2f035f	-0.1709113
49	0xbdfc4e9b	-0.1231968
50	0x3e62241e	0.2208409
51	0xbe50ee2c	-0.20403355
52	0xbe0dac68	-0.13835299
53	0xbe195a44	-0.1497584
54	0xbe365f85	-0.17809875
55	0x3e627978	0.22116649
56	0xbed4533c	-0.41469753
57	0xbd33c3c3	-0.043887865
58	0xbe078ecc	-0.13238066
59	0x3e19967a	0.14998809
60	0xbe22b00c	-0.15887469
61	0x3a032f31	0.00050042855
62	0x3e6abade	0.22922847
63	0xbdfe2487	-0.12409311

bn1.running_var f4 [64]
0	0x3cbceb84	0.023061521
1	0x3c7b1843	0.015325609
2	0x3be7bf3a	0.0070723565
3	0x3d42a540	0.047520876
4	0x3b5e945c	0.003396294
5	0x3c216214	0.009850044
6	0x3dc0a1e5	0.09405879
7	0x3c97ba91	0.018521579
8	0x3cf4ae51	0.029868277
9	0x3d294ce6	0.0413331
10	0x3d016ea2	0.03159965
11	0x3cf16c1c	0.029470496
12	0x3b89f6f3	0.004210347
13	0x3c4f8b37	0.012667469
14	0x3c8e9a8e	0.017407682
15	0x3cb8235b	0.022477796
16	0x3d201ab3	0.039087962
17	0x3c1465ad	0.0090574445
18	0x3c21f04f	0.009883954
19	0x3c896341	0.01677096
20	0x3cc0e7e6	0.023548078
21	0x3cbf4b5d	0.023351366
22	0x3bd087f8	0.006363865
23	0x3bab0d20	0.0052200705
24	0x3d530eb8	0.05152771
25	0x3c8e4163	0.017365163
26	0x3c0b4e33	0.008502531
27	0x3c95d4e0	0.018289983
28	0x3d71b94a	0.059014596
29	0x3c2db7f8	0.010602944
30	0x3d82f616	0.063945934
31	0x3d3a98f2	0.045556016
32	0x3d1979e5	0.037469763
33	0x3d4aa16c	0.04947035
34	0x3c67e229	0.014153042
35	0x3bd121f9	0.0063822237
36	0x3ce87505	0.028376112
37	0x3c613b21	0.013747008
38	0x3d60ea7b	0.054911118
39	0x3c596c12	0.013270395
40	0x3b8f6fde	0.0043773493
41	0x3d623a14	0.05523117
42	0x3c2e0790	0.01062192
43	0x3c7427fb	0.01490211
44	0x3cf95da5	0.030440161
45	0x3d2abb56	0.041682564
46	0x3cd74dbc	0.026282184
47	0x3bb02797	0.005375813
48	0x3cf5addb	0.029990127
49	0x3b45dad5	0.0030190249
50	0x3ca9a29a	0.020707417
51	0x3b9893fe	0.004656314
52	0x3bb5f929	0.005553384
53	0x3cdc1531	0.026865574
54	0x3bd7ab1a	0.006581676
55	0x3cd2ffad	0.025756681
56	0x3c44c6d9	0.0120103
57	0x3b8af555	0.0042406716
58	0x3c3173a3	0.010830793
59	0x3c9928b5	0.018696168
60	0x3c8927e6	0.016742658
61	0x3d96e81f	0.07368492
62	0x3c3ca031	0.011512802
63	0x3c0cd339	0.008595281

conv2.weight f4 [64, 64, 3, 3]
0	0xbb34fc61	-0.002761625
1	0x3bc7f3c5	0.0061020576
2	0x3c15037b	0.009095068
3	0x3cfb58ea	0.030682046
4	0xbd13c2b7	-0.036074366
5	0x3ca03300	0.019555569
6	0xbb8ef446	-0.0043626158
7	0x3c25c84f	0.010118558
8	0x3cf98415	0.03045849
9	0xbc594a99	-0.013262414
10	0xbc7bd904	-0.015371565
11	0xbccb513a	-0.024819005
12	0x3c09c154	0.008407909
13	0xbcb7b31d	-0.022424275
14	0x3d0f10a4	0.03492798
15	0xbcb5713d	-0.022148723
16	0xbc541c90	-0.012946263
17	0xbd318450	-0.043339074
18	0xbcbe7cdc	-0.023252897
19	0xbd25efa4	-0.040511742
20	0xbc812600	-0.01576519
21	0x3d0b0d84	0.033948436
22	0xbbff0423	-0.0077824756
23	0xbd228b3d	-0.03968357
24	0x3c1563ef	0.009118064
25	0xbc0aa34c	-0.008461785
26	0x3d26764a	0.040640153
27	0xbd06c482	-0.03290225
28	0x3b57cc37	0.0032928118
29	0x3d10c8fc	0.035347924
30	0x3d3d6be4	0.04624547
31	0x3d169e9e	0.036772363
32	0xbca467e6	-0.020069074
33	0xbb8ff1aa	-0.0043928223
34	0xbd21f42b	-0.039539497
35	0x3cc7e4d5	0.024401108
36	0xbc6a660b	-0.0143065555
37	0x3cbb4d69	0.02286406
38	0xbb4ea51c	-0.0031531518
39	0xbcaa6c8d	-0.020803714
40	0xbca6e597	-0.020373149
41	0x3c332641	0.010934413
42	0xbbbbb933	-0.0057288646
43	0x3d0e3261	0.034716014
44	0xbcaf1969	-0.021374421
45	0xbd499bee	-0.04922097
46	0x3cbb12db	0.02283614
47	0x3c24ec09	0.010066041
48	0x3cf9e9e9	0.030507045
49	0xbd1703dd	-0.03686892
50	0x3b134ebb	0.0022477347
51	0xbc876ff1	-0.01653287
52	0x3d0b1122	0.033951886
53	0x3c92b48e	0.01790836
54	0xbc39f2b6	-0.011349371
55	0xbd1e7f2e	-0.038695507
56	0xbc673071	-0.01411067
57	0x3c792cfa	0.015208477
58	0x3c14c081	0.0090791
59	0xbcdfd3c1	-0.027322652
60	0xbcdca221	-0.026932778
61	0xbcf62836	-0.030048471
62	0x3cc5e33b	0.024156203
63	0xbbfa78c8	-0.007643793
64	0xbc72fe2b	-0.014831106
65	0xbc3b13a6	-0.011418259
66	0x3c5eb477	0.013592831
67	0x3a588311	0.00082592765
68	0x3c70c275	0.0146948
69	0x3cf5b070	0.029991359
70	0x3be4ed2b	0.0069862804
71	0x3ce8cf57	0.02841918
72	0x3cbc13db	0.022958687
73	0xbd0388b2	-0.032112785
74	0x3cc760e5	0.024338195
75	0x3b41d69e	0.0029577385
76	0xbbf74ca9	-0.0075469804
77	0x3c7d5658	0.0154624805
78	0xbc7e611d	-0.015526083
79	0xbc6ee25a	-0.014580334
80	0xbcb75724	-0.02238042
81	0x3c9a11a5	0.018807242
82	0xbcb3171f	-0.021861611
83	0x3d0617ad	0.032737423
84	0x3bf9b26b	0.007620146
85	0x3cc27001	0.023735048
86	0x3d20a2e6	0.039217852
87	0x3c84b304	0.016198643
88	0x3c5ae2e1	0.013359756
89	0x3cdf21ce	0.027237799
90	0x3cdf0bb8	0.027227268
91	0x3cafee39	0.021475898
92	0x3ba0c461	0.0049062227
93	0xbd07eb78	-0.033183545
94	0xbd0ae2c8	-0.03390768
95	0x395da311	0.0002113695
96	0x3cb3bbce	0.021940138
97	0x3ceff0a2	0.029289547
98	0x3c3b4cbe	0.011431871
99	0x3ccd3f6c	0.025054656
100	0xbd1d41a4	-0.038392678
101	0x3bda5db1	0.006664001
102	0xbcce9ae2	-0.025220338
103	0x3cfe4aa9	0.03104146
104	0xbd194719	-0.03742132
105	0x3d1760da	0.0369576
106	0xbc0724f1	-0.008248554
107	0xbc9c5c4f	-0.019086985
108	0xbcaf3c38	-0.02139102
109	0xbbc8d79a	-0.0061292173
110	0xbcb50572	-0.022097323
111	0xbcfd7aee	-0.030942407
112	0xbcf1a253	-0.029496348
113	0x3c7f5ee1	0.015586586
114	0xbd014ca9	-0.03156725
115	0xbcefe250	-0.029282719
116	0x3d103e94	0.03521593
117	0xbd2b7055	-0.041855175
118	0xbc9269be	-0.017872687
119	0x3ca405f9	0.02002238
120	0xbba36b5b	-0.004987163
121	0x3d06f414	0.032947615
122	0x3c91d731	0.017802807
123	0xbcab5771	-0.020915719
124	0xbce75f48	-0.028243676
125	0x3c5548e4	0.013017867
126	0xbcc40a05	-0.023930559
127	0x3ca643f2	0.02029607
128	0xbb96cd35	-0.0046020993
129	0xbb2d5293	-0.0026446923
130	0x3b1bc3d2	0.002376784
131	0xbc66fa03	-0.014097693
132	0x3ab76fbc	0.0013995091
133	0x3cd98605	0.026553163
134	0x3ccacfa3	0.024757212
135	0x3c9180d2	0.017761622
136	0x3d2a7008	0.041610748
137	0x3c3f5cb8	0.011679821
138	0xbc467d07	-0.01211477
139	0x3a87a6a5	0.0010349347
140	0xbcb46f9a	-0.022025872
141	0xbc969584	-0.018381841
142	0xbcf017ea	-0.029308278
143	0xbcf0b6dc	-0.02938407
144	0xbca95fe8	-0.020675614
145	0x3d193ef8	0.037413567
146	0x3ac553a3	0.0015054833
147	0x3bba329e	0.0056823036
148	0x3d14cb09	0.036326442
149	0xbc980577	-0.018557293
150	0x3ccc3067	0.024925424
151	0xbcb4338f	-0.021997241
152	0x3c26cb08	0.010180242
153	0xbc71d566	-0.014760351
154	0x3b6e3e8a	0.0036353194
155	0x3c028afe	0.007967709
156	0x3c820d99	0.015875624
157	0xbcd6ea51	-0.026234778
158	0xbcb23c25	-0.021757195
159	0x3a1fcb80	0.00060956925
160	0xbcd8b7e7	-0.026454879
161	0x3d092846	0.033485673
162	0x3d06c0ce	0.032898717
163	0xbd380d6f	-0.044934686
164	0xbc944144	-0.018097527
165	0x3c79e5f5	0.01525258
166	0xbd165dae	-0.036710434
167	0xbd3e001d	-0.046386827
168	0xbc58328c	-0.013195645
169	0xbac2bc1c	-0.0014857086
170	0xba26d87e	-0.00063646573
171	0xbc3a2c24	-0.011363063
172	0xbc0f0269	-0.008728602
173	0xbcdd3ccf	-0.027006535
174	0xbcf95f87	-0.030441059
175	0xbcbdb97f	-0.02315974
176	0xbc65784a	-0.01400573
177	0x3cdffbf6	0.027341824
178	0xbcc91a5d	-0.024548704
179	0x3d18a434	0.03726597
180	0x3caf46a3	0.021395987
181	0xba95974e	-0.001141289
182	0x3d16850d	0.03674798
183	0x3b77c1a6	0.0037804632
184	0x3d0ba4b4	0.03409262
185	0xbbdbfb04	-0.006713273
186	0x3d36bbdf	0.04461276
187	0xbc47304d	-0.012157512
188	0xbc535c78	-0.012900464
189	0x3b04a4e4	0.0020239884
190	0xba420ac5	-0.00074021175
191	0xbd06f580	-0.03294897
192	0xbca4a126	-0.020096373
193	0x3ce48634	0.027896024
194	0x3b4004e1	0.0029299783
195	0xbcfcef2a	-0.030875761
196	0xbc85cbc5	-0.016332516
197	0xbbf7224b	-0.00754193
198	0x3d2541fc	0.04034613
199	0xbbc7fdcd	-0.0061032535
200	0x3ce8cf16	0.028419059
201	0xbcb111fe	-0.021615025
202	0x3b496b39	0.0030734076
203	0x3d06580e	0.03279882
204	0x3d27ffa2	0.041015275
205	0xbc94411a	-0.01809745
206	0x3d0d7b8a	0.034541644
207	0x3ca757f3	0.02042768
208	0xbd11f1eb	-0.0356311
209	0xbd04193a	-0.03225062
210	0xbca51f61	-0.020156564
211	0xbd1b6cee	-0.03794568
212	0xbd37ca68	-0.044870764
213	0xbca21ad7	-0.019788189
214	0xbbb39615	-0.0054805377
215	0xbcd50985	-0.026005516
216	0x3cbf0e3d	0.023322219
217	0x3d2a5f4e	0.041594796
218	0x3acaaf0e	0.0015463547
219	0x3cd73249	0.026269095
220	0x3d27c170	0.04095596
221	0x3c17ee31	0.009273098
222	0x3cb965c6	0.022631537
223	0x3c32ab7b	0.010905142
224	0xbb0516fd	-0.0020307892
225	0xbcc2b2b4	-0.023766853
226	0xbbaff5eb	-0.005369892
227	0x3d2f1aaa	0.04275004
228	0x3bd5f487	0.006529394
229	0x3d066608	0.03281215
230	0xbc715719	-0.014730238
231	0xbb601288	-0.0034190733
232	0xbd2309c9	-0.039804254
233	0xbcdcc7f2	-0.02695081
234	0xbc18989f	-0.009313731
235	0xba6a64ed	-0.0008941431
236	0xbcd6ab20	-0.026204646
237	0x3d0718b4	0.032982543
238	0xbc81c345	-0.015840182
239	0xbb8f91fb	-0.004381416
240	0xbb444f45	-0.0029954475
241	0x3c4ccf8a	0.012500653
242	0x3d38af45	0.045089025
243	0xbc6bff59	-0.014404141
244	0x3b627ebb	0.00345604
245	0x3cd5693d	0.026051158
246	0xbc64fc53	-0.013976174
247	0xbbacc3ac	-0.0052723493
248	0x3d1dd42e	0.03853243
249	0x3c8f976b	0.017528256
250	0x3ce5199f	0.027966319
251	0x3b839573	0.0040156185
252	0x3be5e05d	0.0070152716
253	0xbcf9e775	-0.030505875
254	0xbd1975c8	-0.03746584
255	0x3b9c0844	0.0047617275

conv2.bias f4 [64]
0	0xba9efb2b	-0.0012129297
1	0xbafa59ab	-0.001910021
2	0xbd0254e3	-0.031819236
3	0x3c9c9fcb	0.019119164
4	0xbcbd30a0	-0.023094475
5	0x3ca3ebb6	0.020009857
6	0xbd02303e	-0.03178429
7	0xbcdf51b8	-0.027260646
8	0x3ba0ae76	0.00490361
9	0x3c34762b	0.011014502
10	0xbcfb0266	-0.030640792
11	0x3cfe2158	0.031021759
12	0x3d03073f	0.031989332
13	0x3c771350	0.015080288
14	0xbc627280	-0.013821244
15	0xba2d5400	-0.0006611943
16	0xbc994f26	-0.018714499
17	0x3cde6968	0.027149871
18	0x3d07f6ea	0.03319446
19	0xbc22e5c6	-0.009942478
20	0x3cd24a66	0.025670242
21	0xbba62ccb	-0.0050712577
22	0x3ce3fb16	0.027829688
23	0x3d1505db	0.036382537
24	0xbd27ef64	-0.040999785
25	0xbcaa1a60	-0.02076453
26	0xbcb82cae	-0.022482242
27	0xbcc9b830	-0.02462396
28	0x3c7087b6	0.0146807935
29	0xbce3cb16	-0.0278068
30	0xbc5e44f6	-0.013566246
31	0xbc340520	-0.01098755
32	0x3b4d0880	0.0031285584
33	0x3c942980	0.018086195
34	0x3ce94bc0	0.028478503
35	0x3ba539e0	0.0050422996
36	0x3c3bedeb	0.011470298
37	0x3cef68b3	0.02922473
38	0xbc893a06	-0.0167513
39	0x3a77e956	0.0009457072
40	0xbd183ac0	-0.037165403
41	0xbc9059f8	-0.017621025
42	0x3c78eb76	0.015192857
43	0x3d0597b8	0.032615393
44	0x3c17fbe6	0.009276366
45	0x3c8a4866	0.016880225
46	0xbd277cf7	-0.04089066
47	0xbc4f83ab	-0.012665669
48	0xbcb10908	-0.021610752
49	0x3c93e1ab	0.018051943
50	0xbca4ba33	-0.020108318
51	0xbcee9296	-0.029122632
52	0x3d1b798f	0.037957724
53	0xbd2336a2	-0.039847024
54	0xbb4debab	-0.0031420987
55	0x3c6abd00	0.014327288
56	0xbc170fb6	-0.009220054
57	0x3c8d83b6	0.017274719
58	0x3d22febb	0.03979371
59	0x3bce17c0	0.0062894523
60	0xbcbee243	-0.02330125
61	0x3cbe172e	0.023204412
62	0xbd09f61f	-0.033681985
63	0x3d16db87	0.03683045

bn2.weight f4 [64]
0	0x3f803ae2	1.001797
1	0x3f7fa4d0	0.9986086
2	0x3f7e047f	0.9922561
3	0x3f803951	1.0017492
4	0x3f7ef0be	0.99586093
5	0x3f7e7020	0.9938984
6	0x3f7f6e9c	0.9977815
7	0x3f8021a1	1.0010263
8	0x3f8044be	1.0020978
9	0x3f7faf1f	0.9987659
10	0x3f81c820	1.0139198
11	0x3f800529	1.0001575
12	0x3f7dfeb1	0.99216753
13	0x3f80d1ac	1.0063987
14	0x3f7e4728	0.99327326
15	0x3f7d304f	0.9890184
16	0x3f7ee132	0.9956237
17	0x3f7f66e5	0.9976638
18	0x3f7de5c9	0.9917875
19	0x3f802218	1.0010405
20	0x3f7e6dad	0.993861
21	0x3f80f512	1.007479
22	0x3f7d8916	0.990373
23	0x3f7ed205	0.99539214
24	0x3f7e1cc2	0.9926263
25	0x3f7cf79f	0.9881534
26	0x3f7ea385	0.9946826
27	0x3f804594	1.0021234
28	0x3f837449	1.0269862
29	0x3f7f72b8	0.9978442
30	0x3f8012e9	1.0005771
31	0x3f7eee2b	0.99582165
32	0x3f81acbc	1.0130839
33	0x3f80da13	1.0066551
34	0x3f807dc1	1.0038377
35	0x3f7fca1b	0.99917763
36	0x3f7ef97c	0.9959943
37	0x3f82acc7	1.0208977
38	0x3f7dec51	0.99188715
39	0x3f7eff8b	0.9960868
40	0x3f7fd6ca	0.9993712
41	0x3f7fa0f3	0.99854964
42	0x3f7ebd9c	0.9950807
43	0x3f7ea3fd	0.99468976
44	0x3f806b51	1.003275
45	0x3f81d961	1.0144464
46	0x3f7ebda5	0.99508125
47	0x3f7efe44	0.9960673
48	0x3f80e816	1.0070827
49	0x3f8115d5	1.0084788
50	0x3f8052bf	1.0025252
51	0x3f80c248	1.005929
52	0x3f8000c7	1.0000237
53	0x3f7f1455	0.996404
54	0x3f81dc81	1.0145417
55	0x3f7eba4f	0.99503034
56	0x3f7dbb14	0.99113584
57	0x3f7f90ce	0.9983033
58	0x3f7f0acd	0.99625856
59	0x3f7fdcbf	0.99946207
60	0x3f7e4f08	0.9933934
61	0x3f819262	1.0122797
62	0x3f8063c1	1.0030442
63	0x3f7fa96e	0.99867904

bn2.bias f4 [64]
0	0x3a46e8ba	0.00075877795
1	0xbb3f5d3a	-0.0029199854
2	0xba8a136e	-0.0010534355
3	0xbb0c5fad	-0.0021419332
4	0xbacae7ce	-0.001548046
5	0xbbc98fb7	-0.0061511653
6	0xbb43d722	-0.0029882868
7	0x3ab94d81	0.0014137478
8	0xbb3a0a55	-0.0028387506
9	0xbb9e6727	-0.004834074
10	0x3a33413b	0.0006838028
11	0xbbb3c2ce	-0.005485869
12	0xbb10ce10	-0.002209548
13	0xbb877374	-0.004133636
14	0xbbb05b4e	-0.005381978
15	0xbb220e43	-0.002472774
16	0xbb971f96	-0.0046119196
17	0xbbcd58f6	-0.0062667085
18	0x3b2da4e4	0.0026495988
19	0xbad391de	-0.0016141494
20	0xba9ecd78	-0.0012115678
21	0xbbbda1f3	-0.005787128
22	0xbad78e1a	-0.0016445548
23	0xbc037903	-0.008024457
24	0xbb69d0fc	-0.0035677543
25	0xbb98e435	-0.0046658763
26	0xbb234398	-0.0024912115
27	0xbc371b0d	-0.011175883
28	0xbbca25a5	-0.0061690384
29	0xbb96ed5e	-0.004605933
30	0xbb48276e	-0.003054108
31	0xba4f05b2	-0.0007897272
32	0xbacb2a1f	-0.0015500224
33	0xbb87ee40	-0.0041482747
34	0xbbd84523	-0.0066000386
35	0xbb5fdf00	-0.0034160018
36	0xbb69f998	-0.0035701748
37	0xbc1a58c4	-0.009420577
38	0x3aeffcec	0.001830963
39	0xbb9d7444	-0.0048051197
40	0xbb7719a0	-0.0037704483
41	0xba204a23	-0.0006114563
42	0xbb76749f	-0.0037606133
43	0xbae49519	-0.0017439454
44	0xbbce42d3	-0.006294587
45	0xbc57c585	-0.013169651
46	0x3a790fd3	0.0009500954
47	0xbb5c615a	-0.0033627362
48	0x3b35b012	0.0027723354
49	0xbb8f35fe	-0.00437045
50	0xbbb34f50	-0.0054721013
51	0xbbd6df01	-0.006557346
52	0xba39877d	-0.0007077379
53	0xbba57752	-0.0050496245
54	0x3c0d1233	0.008610296
55	0xbb7efd5a	-0.0038908334
56	0xbb0f1097	-0.0021829957
57	0xbb256276	-0.002523569
58	0xbbfbfad9	-0.0076898155
59	0xbbce2ce8	-0.0062919743
60	0xbb42f763	-0.0029749505
61	0xbbffda2e	-0.0078079915
62	0xbbb94fb3	-0.005655253
63	0xbb922b51	-0.00446073

bn2.running_mean f4 [64]
0	0xbe7a8b23	-0.24467139
1	0xbf19458b	-0.5987174
2	0xbe820583	-0.2539483
3	0xbe58c4c6	-0.21168813
4	0x3ec9ece8	0.39438558
5	0xbe81ff63	-0.25390157
6	0xbf68f738	-0.91002226
7	0xbf24c30c	-0.6436012
8	0xbf566e42	-0.8376199
9	0xbeb7544a	-0.35806495
10	0xbddc1068	-0.10745317
11	0xbf45a014	-0.77197385
12	0x3d4f4925	0.050606865
13	0xbf77c208	-0.96780443
14	0xbedff2c2	-0.43739897
15	0x3eb679cb	0.35639796
16	0x3faa7dd8	1.3319654
17	0xbee1d28c	-0.44105947
18	0x3f849aa1	1.0359689
19	0xbef9adfc	-0.48765552
20	0x3e956ccb	0.29184565
21	0xbef87fc8	-0.4853499
22	0x3e2f0ecf	0.17095493
23	0xbead157e	-0.3380546
24	0x3e1bdc28	0.15220702
25	0xbeea8c68	-0.45810246
26	0xbea85a7a	-0.32881528
27	0x3ed7a5b2	0.42118603
28	0xbfca3433	-1.579718
29	0xbf83ef6f	-1.0307444
30	0xbeb4beab	-0.35301718
31	0xbe508e41	-0.20366766
32	0x3de5d44b	0.11222132
33	0x3ef451f9	0.4771879
34	0x3f5a2537	0.85213035
35	0xbd841c4a	-0.06450708
36	0xbdceb9b0	-0.10094011
37	0xbf09029b	-0.535196
38	0xbe4dad94	-0.20085746
39	0xbf1bcb47	-0.6085705
40	0xbf0b3d2e	-0.5439023
41	0xbe269ff7	-0.16271959
42	0x3f9664b6	1.1749485
43	0xbe7f0d8e	-0.24907514
44	0xbed6687e	-0.41876596
45	0xbf5c56c2	-0.8606988
46	0x3e702b4f	0.23454021
47	0xbe39414f	-0.1809132
48	0xbf02a192	-0.51027787
49	0xbf04081f	-0.5157489
50	0x3f8f2282	1.1182406
51	0xbec6ede9	-0.38853386
52	0x3f9b3c0f	1.2127703
53	0x3e885419	0.2662666
54	0xbeaf3082	-0.34216696
55	0xbe2f2737	-0.17104803
56	0xbe00ed96	-0.12590632
57	0x3ec0e21b	0.37672505
58	0xbf306f44	-0.6891978
59	0xbf604d56	-0.87618005
60	0xbe866231	-0.2624679
61	0xbf30f05e	-0.6911677
62	0xbf9df3d7	-1.2340039
63	0xbdda4934	-0.10658494

bn2.running_var f4 [64]
0	0x3e87be59	0.2651241
1	0x3e4c76de	0.19967219
2	0x3e51899e	0.20462653
3	0x3e97368a	0.29533798
4	0x3ececf35	0.4039246
5	0x3d9e4e1a	0.077297404
6	0x3ee7aaf8	0.45247626
7	0x3dd50f6a	0.104033306
8	0x3e2fcb8f	0.17167495
9	0x3d8a87bb	0.0676417
10	0x3dc3db76	0.09563343
11	0x3e57f31b	0.21088831
12	0x3df2e728	0.11860496
13	0x3e193f1f	0.14965485
14	0x3e0cc09c	0.1374535
15	0x3e32ff0c	0.17480105
16	0x3e8b7cef	0.27243754
17	0x3e65778d	0.22408886
18	0x3ec0994b	0.37616953
19	0x3de235fa	0.110454515
20	0x3e21e3da	0.15809575
21	0x3d9e559e	0.07731174
22	0x3e565ed2	0.20934609
23	0x3dfce575	0.12348453
24	0x3e829f17	0.25512
25	0x3e4dd350	0.2010014
26	0x3dc30e71	0.09524239
27	0x3dc22707	0.094801
28	0x3e8b748d	0.2723736
29	0x3e96a19e	0.2942018
30	0x3debe20c	0.115177244
31	0x3e8707b2	0.2637306
32	0x3decd7e0	0.115646124
33	0x3e0b50ec	0.13605088
34	0x3e0d7f43	0.13818078
35	0x3efa37f6	0.4887082
36	0x3e22b37d	0.15888782
37	0x3e29e70f	0.16592048
38	0x3e5ad326	0.21369609
39	0x3e4d6a1b	0.20060007
40	0x3dbdbd67	0.09264641
41	0x3eabb1bf	0.33534047
42	0x3e54962c	0.20760411
43	0x3e3a997a	0.18222609
44	0x3deb17c2	0.11479141
45	0x3de0ed39	0.10982747
46	0x3e9c41ed	0.30519047
47	0x3e4da16d	0.2008111
48	0x3deaa787	0.114577346
49	0x3df0715c	0.117403716
50	0x3e823aa7	0.25435373
51	0x3e0a5d14	0.13512069
52	0x3ecf9f65	0.40551296
53	0x3eef82f5	0.467796
54	0x3dfd8c7d	0.12380312
55	0x3db2ecbb	0.08736559
56	0x3e3532f7	0.17695223
57	0x3ddda783	0.10822966
58	0x3e7f27cc	0.24917525
59	0x3e7c59cd	0.24643631
60	0x3e499944	0.19687372
61	0x3e23adf5	0.15984328
62	0x3e9d837d	0.3076438
63	0x3df1d7fe	0.11808775

conv3.weight f4 [64, 64, 3, 3]
0	0xbcd12f9e	-0.025535401
1	0xbbe59857	-0.0070066857
2	0x3d12cd05	0.035840053
3	0x3c14ed06	0.009089714
4	0xbcedc101	-0.029022695
5	0x3cbdfad6	0.023190897
6	0x3d1fe958	0.039040893
7	0x3d47b33d	0.04875492
8	0xbc937104	-0.017998226
9	0x3b3c7bb2	0.0028760252
10	0xbcf4923a	-0.029854883
11	0xbba8292a	-0.0051318603
12	0x3d169c1c	0.03676997
13	0x3d021844	0.031761423
14	0x3c555324	0.013020311
15	0x3d17d71f	0.03707039
16	0x3c92b2d9	0.017907547
17	0x3d344f1b	0.044020753
18	0xbbf8e424	-0.007595556
19	0x3d079299	0.03309879
20	0x3d1b9209	0.037981067
21	0xbbd61e67	-0.006534386
22	0x3c7d8488	0.015473492
23	0x3c932bc9	0.017965214
24	0xbc4163e8	-0.011803605
25	0xbbc9d296	-0.006159137
26	0x3d079d2a	0.033108868
27	0x3c907bdf	0.017637191
28	0xbc521d07	-0.0128243035
29	0x3ba10913	0.004914412
30	0xbcff12bb	-0.031136861
31	0xbbc0b31b	-0.005880726
32	0x3c60a414	0.013710994
33	0xba535ec2	-0.0008063131
34	0xbcf6d82c	-0.030132376
35	0x3c9e74fa	0.019342888
36	0x3c326b31	0.010889814
37	0x3c2a0dcd	0.010379267
38	0xbd0b0ac4	-0.033945814
39	0xbd047f40	-0.032347918
40	0xbbf1ced5	-0.0073793926
41	0x3b8c38ce	0.0042792326
42	0x3c7db8ba	0.015485937
43	0xbce34089	-0.027740734
44	0x3d02ea7f	0.031961914
45	0xbc1cb916	-0.009565612
46	0xbcfd4f7b	-0.030921688
47	0x3d37bac7	0.04485586
48	0xbc511194	-0.012760539
49	0x3d0368c0	0.03208232
50	0xbcaaa20c	-0.020829223
51	0x3cfc3672	0.03078768
52	0x3cb888c6	0.022526156
53	0xbcd49e9e	-0.02595454
54	0xbc32e59b	-0.010919
55	0x3d0cbd4d	0.03436022
56	0x3cab9438	0.0209447
57	0x3d2533bd	0.040332545
58	0x3c1dc20a	0.009628782
59	0xbc48064f	-0.012208535
60	0xbca82271	-0.020524235
61	0xbb4c5347	-0.0031177567
62	0x3d2d7dd1	0.042356316
63	0x3d203f77	0.039123025
64	0xbc36a3a7	-0.011147416
65	0x3d3d603e	0.04623436
66	0xbce16c9e	-0.027517613
67	0xbd1b0549	-0.037846837
68	0xbca44c93	-0.020056045
69	0x3d0c493d	0.034249533
70	0x3ceba656	0.028765839
71	0x3d3826b3	0.04495878
72	0xbd05e011	-0.03268439
73	0x3b2c26ac	0.0026268167
74	0x3a217436	0.00061589794
75	0xbb8896c6	-0.004168364
76	0xbcf8eadd	-0.030385429
77	0xbc059fa0	-0.008155733
78	0x3cac0efa	0.021003235
79	0xbd1970bf	-0.03746104
80	0xbd27280a	-0.04080967
81	0x3d1556e9	0.036459837
82	0xbc994288	-0.018708482
83	0x3b4fe379	0.0031721278
84	0x3d055401	0.032550815
85	0xbce1d95b	-0.027569463
86	0xbc691d82	-0.014228227
87	0xbac594b9	-0.001507423
88	0xbc2d796f	-0.010588034
89	0x3c246209	0.010033139
90	0xbc891fca	-0.016738791
91	0xbc9865a0	-0.018603146
92	0xbcb8a5d0	-0.022540003
93	0xbcf939d9	-0.030423092
94	0xbcea89ce	-0.028630164
95	0xbcdd214d	-0.026993418
96	0x3cc18ee9	0.023627715
97	0x3ca9ffce	0.02075186
98	0x3caa49f1	0.020787211
99	0xbc227a87	-0.009916908
100	0xbc1d4374	-0.009598602
101	0x3cca787d	0.024715656
102	0xbcfadd8b	-0.030623218
103	0x3d1d2818	0.038368315
104	0xbc3bfcaa	-0.011473814
105	0x3d2fe140	0.042939425
106	0x3c240da6	0.01001302
107	0xbb7435c1	-0.0037263485
108	0x3c8ef4ca	0.017450709
109	0xbbd33391	-0.006445356
110	0x3ca8835c	0.02057045
111	0x3c389a06	0.011267191
112	0xbc8afc5e	-0.016966041
113	0xbc353e1b	-0.01106217
114	0xbd1d6bf7	-0.03843304
115	0xbcfac524	-0.030611582
116	0xbd0d0ffd	-0.034439076
117	0xbd0b7a59	-0.034052227
118	0x3cf1b815	0.029506722
119	0xbc2df1f0	-0.010616764
120	0x3c9068ba	0.017628063
121	0xbb6424f7	-0.0034812072
122	0x3d05c170	0.03265518
123	0xbcd7cc48	-0.026342526
124	0x3c915c3f	0.017744182
125	0xbc6d4fa5	-0.014484321
126	0xbc53e032	-0.01293187
127	0xbc9f9a75	-0.01948283
128	0x3c4edbe0	0.0126256645
129	0xbcbbd0e9	-0.022926765
130	0x3d073b8c	0.033015773
131	0xbc75c850	-0.0150013715
132	0x3ce919b8	0.028454646
133	0x3c5fc884	0.0136586465
134	0xbbd4ee8e	-0.0064981645
135	0xbcffc4e2	-0.03122181
136	0x3bfa0278	0.007629689
137	0xbd07313c	-0.033005938
138	0xbcd74cd7	-0.026281757
139	0xbd2b4f86	-0.041823886
140	0xbcdeb6a1	-0.027186694
141	0x3c844e1b	0.016150525
142	0x3bb39112	0.00547994
143	0xbc371129	-0.011173525
144	0xbd0bd40f	-0.03413778
145	0x3d0e95df	0.034810897
146	0xbd2d31a4	-0.04228367
147	0xbcf7cfaf	-0.030250398
148	0x3d0c03ca	0.0341833
149	0x3c23fbc7	0.010008759
150	0x3d080b01	0.03321362
151	0x3ce1ac35	0.027547935
152	0x3cc689da	0.024235655
153	0xbcf4a71a	-0.029864836
154	0x3d1c7784	0.038199916
155	0x3cddc632	0.027072046
156	0x3b290085	0.0025787663
157	0xbcc125fd	-0.023577685
158	0x3c0236d4	0.007947642
159	0x3909b068	0.00013131055
160	0xbbc7c39d	-0.006096317
161	0x3ccb60e4	0.024826474
162	0xbc95c6b4	-0.018283226
163	0x3ab7d31d	0.0014024709
164	0xbcfb56df	-0.030681072
165	0x3cf91f5f	0.030410467
166	0x3c7a8972	0.015291559
167	0xbd2efb09	-0.042719875
168	0xbbefe2c8	-0.0073207356
169	0xbc22dfba	-0.009941036
170	0xbb107645	-0.002204315
171	0xbc1e4a35	-0.009661247
172	0xbb815965	-0.0039474242
173	0x3c617a97	0.013762138
174	0xbc0f55f5	-0.008748521
175	0x3d13b6fb	0.036063176
176	0x3caa7475	0.020807484
177	0x3d2e521c	0.042558774
178	0x39a3940b	0.00031200083
179	0x3d2634a5	0.04057755
180	0x3c4fa34c	0.01267321
181	0x3d450d58	0.04810843
182	0xbc9d827e	-0.019227263
183	0x3cda3aca	0.026639361
184	0xbccc65d3	-0.024950897
185	0xbc4d1772	-0.012517797
186	0x3cdca377	0.026933415
187	0xbb8a6850	-0.004223861
188	0x3bc8fd44	0.0061337072
189	0x3cfcb427	0.030847622
190	0x3c62bf0c	0.013839494
191	0xbc7cf415	-0.015439053
192	0xbce729f6	-0.02821825
193	0xbb1e549e	-0.0024159322
194	0xbba4171b	-0.005007637
195	0x3bea3107	0.007146958
196	0x3c4a6e15	0.012355347
197	0x3b9ca780	0.0047807097
198	0xbbb92651	-0.0056503196
199	0x3d325be9	0.043544684
200	0x3d0c1806	0.034202598
201	0x3cde83f1	0.027162524
202	0xbced7adf	-0.028989254
203	0x3bf67b34	0.007522011
204	0x3cf27813	0.029598271
205	0xbc855b2f	-0.016278831
206	0xbc705426	-0.0146685
207	0x3ce984d7	0.028505726
208	0x3c384413	0.011246699
209	0x3c3b3f17	0.011428616
210	0x3cf042e1	0.029328765
211	0xbc73b22f	-0.014874025
212	0xbc3e3152	-0.011608439
213	0x3c360b73	0.011111128
214	0x3d035b3a	0.032069422
215	0x3c0c77bf	0.008573472
216	0xbb99fcaa	-0.0046993094
217	0xbd2191b1	-0.039445583
218	0xbbf026a4	-0.007328825
219	0x3b468ef0	0.00302976
220	0x3c611177	0.013737074
221	0xbb9677f6	-0.004591937
222	0x3d13c012	0.036071844
223	0xbbf73d4b	-0.0075451485
224	0x3c35f55c	0.0111058615
225	0xbaed7337	-0.0018116002
226	0x3cd750d3	0.026283657
227	0x3c01ca60	0.007921785
228	0xbd1862e3	-0.03720368
229	0x3d0761a6	0.03305211
230	0x3ca555d7	0.020182533
231	0xbc3cd83e	-0.0115261655
232	0xbd1baa8d	-0.038004447
233	0x3d20c65d	0.039251674
234	0x3c92b76f	0.017909734
235	0xbc955ca6	-0.018232655
236	0x3d2132d6	0.03935512
237	0xbb851716	-0.00406159
238	0x3c97b626	0.018519472
239	0x3bbe89e5	0.005814778
240	0xbcc9749d	-0.024591738
241	0xbc7e0cb5	-0.015505959
242	0x3bd3d6fb	0.0064648367
243	0xbd01f2d4	-0.03172572
244	0xbd03ae95	-0.032148916
245	0xbcb81e2d	-0.022475326
246	0xbcb4f3c4	-0.022088893
247	0xbd0bf8fb	-0.034172993
248	0x3bbf7a6e	0.005843452
249	0x3bc1fd39	0.005920079
250	0x3cc66cac	0.02422174
251	0xbcdef25b	-0.027215173
252	0xbb3e749a	-0.00290612
253	0xbc43ab78	-0.011942737
254	0x3d19ef49	0.037581716
255	0x3c56be76	0.013106933

conv3.bias f4 [64]
0	0x3d234f76	0.0398707
1	0xbd25db56	-0.04049238
2	0x3d113d64	0.035458937
3	0xbc8b560e	-0.017008808
4	0xbc073ad6	-0.008253774
5	0xbc9cb1cb	-0.019127747
6	0xbcef01a6	-0.02917559
7	0x3ca2eefb	0.019889345
8	0xbc20b8c6	-0.009809678
9	0x3bd14780	0.0063866973
10	0x3c351ef0	0.011054739
11	0x3c220936	0.009889891
12	0x3b1d64ab	0.0024016302
13	0xbcb39346	-0.021920811
14	0xbd1eede7	-0.0388011
15	0x3d281116	0.04103192
16	0x3c669000	0.014072418
17	0xbc9be9fb	-0.019032469
18	0x3c3118d6	0.010809144
19	0xbce209d3	-0.027592575
20	0xbc19752b	-0.009366314
21	0x3d0ee5f8	0.034887284
22	0xbcd96c60	-0.026540935
23	0xbd27f516	-0.041005217
24	0xbcf1810b	-0.029480478
25	0x3ce20870	0.027591914
26	0x36266f59	2.480074e-06
27	0xbc06d78b	-0.0082301
28	0xbd22d0f4	-0.039750054
29	0xbc967178	-0.018364653
30	0x3d1dde7e	0.038542263
31	0xbcd3ac9e	-0.025839146
32	0x3c5ed1d6	0.0135998335
33	0xbcee46ae	-0.029086437
34	0x3cb9c453	0.022676622
35	0xbd228a5e	-0.03968274
36	0x3d03af44	0.03214957
37	0x3cef7576	0.029230814
38	0xbcb4a580	-0.022051573
39	0x3c8fcffe	0.017555233
40	0xbc8f5dcb	-0.017500779
41	0xbd111080	-0.035416126
42	0x3c6973db	0.0142488135
43	0x3bb5b0d6	0.005544762
44	0xbc24bf76	-0.0100554135
45	0x3d24b002	0.040206917
46	0x3d0250b7	0.031815257
47	0xbcfeb8f8	-0.03109406
48	0xbc742ae6	-0.014902806
49	0xbcabc0fe	-0.02096605
50	0x3c963ca3	0.01833946
51	0xbd103468	-0.03520623
52	0x3d24cad3	0.04023249
53	0x3c9b0473	0.01892302
54	0x3cf8f143	0.03038848
55	0x3b90cf56	0.0044192476
56	0x3d04ca93	0.032419752
57	0x3d02b23f	0.03190827
58	0x3d10b246	0.035326265
59	0x3c35622b	0.011070768
60	0xbc7baed6	-0.015361508
61	0xbd0e2d96	-0.034711443
62	0xbd260da2	-0.040540345
63	0x3caadd5e	0.02085751

bn3.weight f4 [64]
0	0x3f83cac1	1.029625
1	0x3f822be0	1.016964
2	0x3f8155ab	1.0104269
3	0x3f83732b	1.0269521
4	0x3f83360a	1.0250866
5	0x3f83867d	1.0275418
6	0x3f85d8ec	1.0456824
7	0x3f81af4c	1.0131621
8	0x3f825afd	1.0184017
9	0x3f83c2e5	1.0293852
10	0x3f84354d	1.0328766
11	0x3f8250c5	1.0180899
12	0x3f8298d9	1.0202895
13	0x3f83401c	1.025394
14	0x3f85f25c	1.0464587
15	0x3f82193f	1.0163954
16	0x3f82c9f3	1.021788
17	0x3f82e0fc	1.022491
18	0x3f808b78	1.0042562
19	0x3f82d45e	1.0221059
20	0x3f828334	1.019629
21	0x3f828673	1.0197281
22	0x3f87719c	1.0581546
23	0x3f81a5ca	1.012872
24	0x3f81af7d	1.013168
25	0x3f8548ec	1.0412879
26	0x3f82a7e2	1.0207484
27	0x3f82cdac	1.0219016
28	0x3f82a245	1.0205771
29	0x3f82088e	1.0158861
30	0x3f8486ea	1.0353673
31	0x3f81f643	1.0153278
32	0x3f83f2c4	1.0308461
33	0x3f81f4fa	1.0152886
34	0x3f825bfd	1.0184323
35	0x3f83026b	1.0235113
36	0x3f82c866	1.0217407
37	0x3f822d84	1.017014
38	0x3f8494b3	1.0357879
39	0x3f854819	1.0412627
40	0x3f829e39	1.0204536
41	0x3f85c5e5	1.0451018
42	0x3f85ed70	1.0463085
43	0x3f828a44	1.0198445
44	0x3f837fb4	1.0273347
45	0x3f84447c	1.03334
46	0x3f83fccc	1.0311522
47	0x3f82a35f	1.0206107
48	0x3f841692	1.0319388
49	0x3f843334	1.0328126
50	0x3f825436	1.0181949
51	0x3f863f14	1.0488
52	0x3f840978	1.031539
53	0x3f82d8b8	1.0222387
54	0x3f8327f4	1.0246568
55	0x3f828af2	1.0198653
56	0x3f82b76f	1.021223
57	0x3f8092c9	1.0044795
58	0x3f834200	1.0254517
59	0x3f81e99b	1.0149416
60	0x3f83df5b	1.0302538
61	0x3f827b81	1.019394
62	0x3f83b972	1.0290968
63	0x3f83b1ff	1.0288695

bn3.bias f4 [64]
0	0x3bb1b2a5	0.0054229074
1	0x3b1eae18	0.0024212655
2	0x3b29add3	0.002589096
3	0x3b4ca583	0.0031226582
4	0x3b6ab42f	0.0035812964
5	0x3b552385	0.0032522392
6	0x3bbe7ddc	0.0058133435
7	0x3bdc3899	0.006720614
8	0x3b93ee0d	0.004514462
9	0x3bd0615b	0.006359262
10	0x3c0963ae	0.008385582
11	0x3b549c44	0.0032441774
12	0x3bf5b37f	0.0074982042
13	0x3c11ac3e	0.008891163
14	0x3c47aba9	0.012186923
15	0x3bd63ef7	0.0065382677
16	0x39e58416	0.00043776695
17	0x3bdd2799	0.006749105
18	0x3ada24ae	0.0016643011
19	0x3bf8a560	0.0075880736
20	0x3bac07b8	0.0052499436
21	0x3bb2b5a0	0.0054537803
22	0x3c7897df	0.015172928
23	0x3b36c281	0.002788693
24	0x3bc5547d	0.0060220347
25	0x3c271dbb	0.010199959
26	0x3bce2455	0.006290952
27	0x3b553787	0.0032534318
28	0x3bea641e	0.007153048
29	0x3b21953e	0.0024655606
30	0x3b6c3802	0.0036044125
31	0x3b57dfaa	0.003293971
32	0x3baea918	0.005330216
33	0x3b117ecc	0.002220082
34	0x3c161b3c	0.009161767
35	0x3ba26b85	0.004956665
36	0x39af676c	0.00033455656
37	0x3bd004dd	0.006348236
38	0x3c41a467	0.011818982
39	0x3c4a695f	0.012354224
40	0x3bd801d2	0.006592014
41	0x3c5225cd	0.012826395
42	0x3b95f8c3	0.004576774
43	0x3b52c432	0.0032160399
44	0x3bf8c85e	0.007592245
45	0x3bbea9fb	0.005818603
46	0x3bc16006	0.0059013395
47	0x3b138a0f	0.002251271
48	0x3c394110	0.011307016
49	0x3b8d2750	0.004307665
50	0x3b91f87d	0.004454671
51	0x3c455e43	0.0120463995
52	0x3ba28983	0.0049602403
53	0x3bd59304	0.00651777
54	0x3c034557	0.008012137
55	0x3b68f4f6	0.0035546399
56	0x3b9c9573	0.004778558
57	0x3ae99b15	0.0017822707
58	0x3c2a68be	0.010400949
59	0x3b94e6b2	0.0045441026
60	0x3b9e1067	0.0048237327
61	0x3b8ce7de	0.0043001017
62	0x3b85482d	0.004067442
63	0x3c04ea5c	0.008112516

bn3.running_mean f4 [64]
0	0xbe956269	-0.29176643
1	0xbe4bb386	-0.19892702
2	0x3eca1413	0.3946844
3	0xbde54e1c	-0.11196539
4	0x3efd0e70	0.49425077
5	0x3e284546	0.16432676
6	0x3c1f663d	0.009728965
7	0x3b08596f	0.002080526
8	0x3e8c33fa	0.27383405
9	0xbe0d64b2	-0.13807943
10	0xbd80c49e	-0.06287502
11	0x3d876c62	0.06612469
12	0x3e2055e2	0.15657762
13	0x3e8e26d4	0.27763999
14	0x3ed240c9	0.41065052
15	0xbf278926	-0.65443647
16	0x3e251213	0.16120176
17	0x3cbc50e5	0.022987792
18	0x3ec219ef	0.3791041
19	0x3d0454b7	0.032307353
20	0x3ddb99af	0.10722672
21	0xbe3cae29	-0.18425812
22	0x3f8b5b91	1.0887319
23	0xbef66480	-0.4812355
24	0x3e47a087	0.1949483
25	0x3edebe5a	0.43504602
26	0xbec08be8	-0.3760674
27	0xbc1ad987	-0.009451277
28	0x3daa0128	0.08301002
29	0xbe954a86	-0.2915842
30	0x3ec46afc	0.38362873
31	0x3de6762c	0.11253008
32	0xbddca3f0	-0.10773456
33	0xbdf3a4c6	-0.118966624
34	0xbd7b9a95	-0.061426718
35	0xbf074f05	-0.5285495
36	0xbf0896ac	-0.5335491
37	0xbc8afd70	-0.016966552
38	0x3db0d6a1	0.08634687
39	0xbdeda5a0	-0.11603856
40	0x3da27c43	0.07933857
41	0x3e862c72	0.26205784
42	0x3e84ff18	0.2597587
43	0x3f2576fe	0.6463469
44	0xbe4a9785	-0.19784363
45	0xbe57b462	-0.21064904
46	0x3ea20337	0.31643078
47	0x3d0c00ba	0.03418038
48	0x3eebc7d4	0.46050894
49	0xbf0dc2f9	-0.5537563
50	0x3e0867c6	0.13320836
51	0x3f0ea6af	0.5572309
52	0x3f0e2609	0.5552679
53	0xbdabb4b1	-0.083840735
54	0xbf0084dc	-0.5020273
55	0x3e013f9d	0.12621923
56	0x3ef27b9e	0.47359937
57	0x3e0d93ba	0.13825884
58	0xbca4c7cb	-0.0201148
59	0x3da0935c	0.078406066
60	0xbf08205e	-0.5317439
61	0x3e0b505e	0.13604876
62	0x3eb43a23	0.35200605
63	0xbf2df1ec	-0.6794727

bn3.running_var f4 [64]
0	0x3daa7fae	0.08325134
1	0x3dba3d8d	0.09093771
2	0x3dd77c27	0.10521727
3	0x3d80086e	0.06251608
4	0x3de56a41	0.11201907
5	0x3d8dd97d	0.06926248
6	0x3d84b980	0.06480694
7	0x3dd54a16	0.104145214
8	0x3ddf0288	0.10889155
9	0x3dc7681d	0.09736655
10	0x3dacacc7	0.08431392
11	0x3df4e6e5	0.11958102
12	0x3e102a9b	0.14078753
13	0x3d8c43c8	0.06848866
14	0x3d9e7964	0.07737997
15	0x3e341570	0.17586303
16	0x3db4a9a7	0.08821421
17	0x3da6e527	0.08149176
18	0x3e314874	0.17312795
19	0x3da5eda5	0.08101968
20	0x3d9d048d	0.076668836
21	0x3dd8d054	0.105866104
22	0x3d90bb27	0.070669465
23	0x3e128e4e	0.14312097
24	0x3d8f8104	0.0700703
25	0x3dc36a80	0.09541798
26	0x3dd537c9	0.10411031
27	0x3dd6724f	0.104710214
28	0x3dd2e86c	0.10298237
29	0x3df43953	0.11924996
30	0x3dd274ac	0.1027616
31	0x3dd77a27	0.105213456
32	0x3da72f82	0.08163358
33	0x3e0e1f11	0.13879038
34	0x3e2c06e0	0.16799498
35	0x3d8d4dcb	0.068996035
36	0x3df1086e	0.11769186
37	0x3dcb3856	0.099228546
38	0x3db1f850	0.0868994
39	0x3d9da906	0.07698254
40	0x3dd3ca7d	0.10341356
41	0x3dadf00e	0.084930524
42	0x3d608171	0.054810945
43	0x3d8d2509	0.068918295
44	0x3e4c1cc8	0.19932854
45	0x3d93a620	0.0720942
46	0x3db71e7f	0.089413635
47	0x3dbb9257	0.091587715
48	0x3daab0c9	0.083345
49	0x3db9ae5c	0.090664595
50	0x3d90a011	0.0706178
51	0x3d6e1588	0.058126003
52	0x3d7f22a3	0.06228889
53	0x3d93cacd	0.072164156
54	0x3dac990c	0.08427629
55	0x3dff8668	0.12476808
56	0x3e093ff6	0.13403305
57	0x3e0ab153	0.13544206
58	0x3d708dc1	0.058728937
59	0x3da9c89a	0.08290215
60	0x3d8f1c47	0.06987815
61	0x3d9327c3	0.07185318
62	0x3dbdab21	0.09261156
63	0x3d89bb0b	0.06725129
