checkpoints/mnist_mlp _quantized.pth (torch, 222812 bytes, 6 tensors)

fc1.weight f4 [64, 784]
0	0x37c2118a	2.313477e-05
1	0x39b4b552	0.0003446737
2	0x38e2fe6f	0.00010823912
3	0xb9e81011	-0.0004426246
4	0xb9f41e98	-0.000465621
5	0xb8eb2a1d	-0.000112135174
6	0xb995fb77	-0.0002860685
7	0xb8e6aa57	-0.00010998983
8	0xb90164c1	-0.00012339932
9	0xb9d6f93a	-0.0004100295
10	0xb8d609fd	-0.00010206176
11	0x39ee9b92	0.00045510806
12	0x3880a6f2	6.1346116e-05
13	0x39e3a4a7	0.0004341949
14	0x392e6294	0.00016630656
15	0xb9c6a448	-0.00037887902
16	0x398f8aea	0.00027378584
17	0x39a2f490	0.0003108126
18	0xb93de1cb	-0.00018108559
19	0x39a14ab5	0.00030763974
20	0x378bffbf	1.6689182e-05
21	0xb997fc75	-0.0002898906
22	0xb9e877c7	-0.0004433973
23	0x39a6dae8	0.00031825085
24	0x39f8b586	0.00047437492
25	0x39bb2c53	0.00035700444
26	0x39b6343c	0.00034752663
27	0x388706c1	6.43856e-05
28	0xb916ea6f	-0.00014392448
29	0x39492ca4	0.00019185484
30	0x398ad465	0.00026479657
31	0xb9a1c7af	-0.0003085709
32	0x396d14ce	0.00022609832
33	0x3998cbea	0.00029143627
34	0x39fdc573	0.00048403032
35	0x39652b65	0.00021855308
36	0xb83a220d	-4.4377568e-05
37	0x39d94ec7	0.0004144816
38	0xb8c0ba80	-9.190012e-05
39	0x38477e57	4.756296e-05
40	0x395716ad	0.00020512445
41	0xb9ed952e	-0.0004531531
42	0xb9f1a671	-0.0004609111
43	0x3916f9af	0.00014398129
44	0x39304077	0.00016808683
45	0x39669b7e	0.00021992435
46	0x39322ec9	0.00016992832
47	0x395e636d	0.00021208609
48	0xb9f54b8e	-0.00046786334
49	0x39c5245b	0.00037601855
50	0x39d0b4f2	0.00039807666
51	0xb895e313	-7.1471695e-05
52	0xb8a9cf2c	-8.097137e-05
53	0xb7be2021	-2.2664726e-05
54	0xb68633b7	-3.9995316e-06
55	0x3a01ecf4	0.0004956268
56	0x38d4f1ec	0.00010154009
57	0x38253f4c	3.9398015e-05
58	0xb9acd54a	-0.0003296531
59	0x394f56e6	0.0001977343
60	0xb957491f	-0.00020531238
61	0xb9c35392	-0.00037255563
62	0x38f15cce	0.00011509062
63	0x398dc78c	0.0002704229
64	0xb9c02f13	-0.00036656167
65	0xb95184b9	-0.00019981236
66	0x38522c5b	5.010921e-05
67	0xb6cb5eb9	-6.0608986e-06
68	0xb9eba686	-0.00044946763
69	0xba00d179	-0.00049140264
70	0xb8bca667	-8.9955334e-05
71	0xb95c5b8e	-0.00021014942
72	0xb98ad35d	-0.0002647889
73	0x39675ed2	0.000220652
74	0x384a81ab	4.8281316e-05
75	0x39cadef8	0.00038694567
76	0xb9e80a0d	-0.00044257977
77	0xba01c38e	-0.00049500994
78	0x38794fd0	5.9440557e-05
79	0xb903c12b	-0.00012565094
80	0x39ab2f2c	0.00032650807
81	0x391ae21d	0.00014770818
82	0x38ac2809	8.209056e-05
83	0xb9ee8fa0	-0.00045501906
84	0x392025c7	0.00015272862
85	0xb9be98ea	-0.00036353554
86	0xb943e47b	-0.00018681765
87	0x39cd79c7	0.00039191378
88	0x39722bfd	0.00023095305
89	0x39cbabbb	0.00038847126
90	0xb9f3444f	-0.00046399466
91	0xb9ba0d69	-0.00035486676
92	0x393b6392	0.00017870803
93	0xb9313aa0	-0.00016901875
94	0x395b94cd	0.000209409
95	0xb990bc7f	-0.0002760626
96	0xb9004b7d	-0.00012235153
97	0x39c6e29c	0.0003793434
98	0xb8e3489c	-0.00010837728
99	0x39215fc3	0.0001538983
100	0xba004e44	-0.0004894475
101	0x395f7c5b	0.00021313263
102	0x38f529f4	0.00011690325
103	0xb81e521d	-3.774661e-05
104	0xb974f734	-0.00023361744
105	0xb9914efe	-0.0002771541
106	0xb9dbd346	-0.00041928346
107	0xb9c82ee4	-0.0003818191
108	0x39b0499c	0.0003362418
109	0x39a5a227	0.00031592065
110	0xb92237a6	-0.00015470255
111	0xb9826588	-0.0002487118
112	0x39d72ac1	0.0004103985
113	0x392a28a4	0.00016227603
114	0xb9e66424	-0.0004394363
115	0xb9c01030	-0.00036633154
116	0xb9c4d079	-0.00037539357
117	0xb9adfb50	-0.00033184374
118	0x3938425b	0.00017572327
119	0xb9419077	-0.00018459732
120	0xb882e5f4	-6.241715e-05
121	0x3901ccc9	0.00012378687
122	0xb9ce0194	-0.00039292558
123	0x39354e90	0.00017290772
124	0x3996ad3a	0.00028739293
125	0x395e2d0f	0.00021188355
126	0x398ec36b	0.00027229948
127	0x3905aefe	0.00012749058
128	0xb9daaf69	-0.0004171089
129	0x39d21121	0.00040067083
130	0x39f2df1b	0.00046324063
131	0xb9aefea4	-0.00033377588
132	0xb92c48a4	-0.00016430259
133	0x39ea9f63	0.0004475071
134	0x39c4e85d	0.00037557157
135	0x384e4dc3	4.918665e-05
136	0xb94844f2	-0.0001909917
137	0xb9f30f8a	-0.0004636015
138	0xb9da3dea	-0.0004162633
139	0x39c01a77	0.00036640812
140	0x394e0842	0.00019648767
141	0xb9ba46da	-0.00035529473
142	0xb98dd66d	-0.00027053375
143	0x39c6414c	0.00037814153
144	0x399fbb42	0.0003046636
145	0xb9cdde55	-0.00039266297
146	0x391dbba6	0.00015042591
147	0xb79e422e	-1.8865885e-05
148	0x39e88cf9	0.0004435552
149	0x38a8c344	8.047235e-05
150	0xb98475a2	-0.00025264645
151	0xb9a60bd1	-0.0003167079
152	0x39d55b5f	0.00040694603
153	0xb82f874c	-4.1849256e-05
154	0xb8e0543a	-0.00010696841
155	0xb997a1cd	-0.00028921515
156	0xba010722	-0.00049220223
157	0x39e19559	0.00043026617
158	0xb7d277af	-2.5089683e-05
159	0x39f97d2e	0.00047586247
160	0x39ae0b25	0.0003319617
161	0xb9bf6653	-0.00036506596
162	0x395a5551	0.00020821883
163	0xb9c93c73	-0.00038382746
164	0xb9760355	-0.0002346163
165	0xba012526	-0.0004926495
166	0x399b25af	0.0002959198
167	0xb90be3d3	-0.00013340944
168	0x39687cea	0.00022171778
169	0x370a5375	8.244872e-06
170	0x38b4f550	8.628762e-05
171	0xb98d2911	-0.00026924213
172	0xb90acd75	-0.00013237244
173	0x39f074c7	0.00045863373
174	0xb89a99cb	-7.3719384e-05
175	0xb9029c46	-0.00012455983
176	0xb91aa6c5	-0.00014748711
177	0xb9d4fc48	-0.00040623755
178	0xb9b667a9	-0.00034790978
179	0xb8619e88	-5.3791824e-05
180	0xb7ad0938	-2.06275e-05
181	0x39a381b1	0.0003118641
182	0x3975bd1f	0.00023435474
183	0xb9ebbac9	-0.0004496186
184	0x38f2f98a	0.000115859395
185	0x398c5b96	0.00026771118
186	0x39a96f34	0.00032317045
187	0x38b86a77	8.793634e-05
188	0xb834bfe0	-4.309404e-05
189	0xb8b6665f	-8.6975044e-05
190	0xb8dd4821	-0.00010551536
191	0x391145cb	0.00013854277
192	0x38b28d48	8.514017e-05
193	0xb8108386	-3.4454766e-05
194	0xb9f93cfd	-0.0004753842
195	0xb8bb761d	-8.938855e-05
196	0xb9365acd	-0.00017390698
197	0xb9acf06f	-0.00032985533
198	0xb94a2928	-0.00019279553
199	0x38afeee2	8.389146e-05
200	0xb9935436	-0.00028100767
201	0x38b9f21d	8.8665845e-05
202	0xb9aee7a2	-0.00033360446
203	0x39bfbc21	0.00036570526
204	0x39ab9cc3	0.00032732458
205	0xb9949092	-0.00028336473
206	0x394e62b5	0.00019682462
207	0x39a212de	0.00030913105
208	0xb883fec1	-6.2940184e-05
209	0xb9b7db77	-0.00035067994
210	0xb917fdcf	-0.00014495033
211	0xb9c182bb	-0.0003690923
212	0xb782bed9	-1.5586078e-05
213	0xb9761042	-0.00023466445
214	0xb9c34f80	-0.0003725253
215	0x39b288cb	0.00034052724
216	0xb982ad0f	-0.0002492447
217	0xb99c2cd5	-0.0002978804
218	0xb86fb811	-5.7153466e-05
219	0x396ade7c	0.00022398861
220	0x39068de4	0.00012832094
221	0xb76551ab	-1.36684785e-05
222	0xb9ab8d79	-0.00032721067
223	0xb678bb65	-3.7063958e-06
224	0xb99eb78e	-0.00030272867
225	0xb8bd046b	-9.013045e-05
226	0xb867521d	-5.5151166e-05
227	0x3937d24e	0.00017530585
228	0xb9751257	-0.00023371853
229	0x37fbc667	3.001392e-05
230	0x39a88392	0.00032141485
231	0xb99c733c	-0.00029840495
232	0xb9806894	-0.0002449198
233	0xb9fe01dc	-0.0004844804
234	0x3940f2fa	0.00018401063
235	0xb8e980ff	-0.00011134333
236	0x3a01d15d	0.0004952157
237	0x396e758a	0.00022741235
238	0xb660322e	-3.340781e-06
239	0xb930a205	-0.00016845025
240	0x39bb5275	0.00035728855
241	0x39600124	0.0002136273
242	0xb9e1b32c	-0.00043048838
243	0xb8eeedb3	-0.00011392999
244	0x3938cbbb	0.00017623503
245	0xb83b5842	-4.466647e-05
246	0xb970fb5d	-0.00022981824
247	0xb95f3b28	-0.00021288975
248	0xb93931b3	-0.00017661489
249	0xb95c46da	-0.00021007229
250	0x39ac2d79	0.00032840276
251	0x39653236	0.00021857847
252	0xb9bb0f7e	-0.00035678962
253	0xb836da4e	-4.3595493e-05
254	0x398b4fb5	0.00026571532
255	0x3a00fad0	0.00049201865

fc1.bias f4 [64]
0	0x00000000	0.0
1	0x00000000	0.0
2	0x00000000	0.0
3	0x00000000	0.0
4	0x00000000	0.0
5	0x00000000	0.0
6	0x00000000	0.0
7	0x00000000	0.0
8	0x00000000	0.0
9	0x00000000	0.0
10	0x00000000	0.0
11	0x00000000	0.0
12	0x00000000	0.0
13	0x00000000	0.0
14	0x00000000	0.0
15	0x00000000	0.0
16	0x00000000	0.0
17	0x00000000	0.0
18	0x00000000	0.0
19	0x00000000	0.0
20	0x00000000	0.0
21	0x00000000	0.0
22	0x00000000	0.0
23	0x00000000	0.0
24	0x00000000	0.0
25	0x00000000	0.0
26	0x00000000	0.0
27	0x00000000	0.0
28	0x00000000	0.0
29	0x00000000	0.0
30	0x00000000	0.0
31	0x00000000	0.0
32	0x00000000	0.0
33	0x00000000	0.0
34	0x00000000	0.0
35	0x00000000	0.0
36	0x00000000	0.0
37	0x00000000	0.0
38	0x00000000	0.0
39	0x00000000	0.0
40	0x00000000	0.0
41	0x00000000	0.0
42	0x00000000	0.0
43	0x00000000	0.0
44	0x00000000	0.0
45	0x00000000	0.0
46	0x00000000	0.0
47	0x00000000	0.0
48	0x00000000	0.0
49	0x00000000	0.0
50	0x00000000	0.0
51	0x00000000	0.0
52	0x00000000	0.0
53	0x00000000	0.0
54	0x00000000	0.0
55	0x00000000	0.0
56	0x00000000	0.0
57	0x00000000	0.0
58	0x00000000	0.0
59	0x00000000	0.0
60	0x00000000	0.0
61	0x00000000	0.0
62	0x00000000	0.0
63	0x00000000	0.0

fc2.weight f4 [64, 64]
0	0xb87fc894	-6.098354e-05
1	0xb853ad71	-5.046785e-05
2	0xb8a7547b	-7.978916e-05
3	0x39c7f159	0.00038136056
4	0xb8411021	-4.6029807e-05
5	0x390a6d92	0.00013201524
6	0x39b166b1	0.00033836582
7	0xb846da6f	-4.741031e-05
8	0xb9ee1742	-0.00045412226
9	0x39ea9e9c	0.0004475013
10	0xb9b0cb6b	-0.00033720894
11	0x3699072b	4.56059e-06
12	0x39c640fd	0.00037813923
13	0x39794fec	0.00023776264
14	0x39626636	0.00021591116
15	0xb939d5f4	-0.00017722679
16	0xb9faeaad	-0.00047858563
17	0x396a8e2e	0.00022368945
18	0x39e16948	0.00042993785
19	0xb9ea3d1b	-0.00044677485
20	0x382417bf	3.9122762e-05
21	0xb9be2a1d	-0.00036271
22	0x39d5a321	0.00040748066
23	0x39925cb1	0.0002791635
24	0x380c4c29	3.344953e-05
25	0x395ecbdc	0.00021247513
26	0x3911ae29	0.00013893157
27	0x393fd6de	0.00018295224
28	0x39c037b9	0.0003666261
29	0xb98f7b40	-0.00027366914
30	0x3937e530	0.00017537619
31	0xb9dcece0	-0.00042138156
32	0xb96b0f51	-0.00022417052
33	0xb9813177	-0.00024641652
34	0x3980ecb3	0.00024590417
35	0x38d332da	0.00010070736
36	0x3918d0da	0.00014573653
37	0x38652cde	5.463964e-05
38	0x38346821	4.3012322e-05
39	0xb997593e	-0.00028867455
40	0x3962a094	0.0002161286
41	0xb7fe79dc	-3.0335905e-05
42	0xb8764c3a	-5.8721962e-05
43	0xb80a2290	-3.2933953e-05
44	0x38ed349c	0.0001131084
45	0xb863d001	-5.4314736e-05
46	0xb94f9379	-0.00019795996
47	0x39610da7	0.00021462758
48	0xb9d5c2ee	-0.0004077176
49	0x39254e1d	0.00015764726
50	0xb9ec4238	-0.00045062765
51	0x39ddb0e0	0.00042284187
52	0xb9b9bc25	-0.00035426128
53	0x39a0c3a8	0.00030663353
54	0xb95c3eff	-0.00021004303
55	0x38e8f605	0.00011108447
56	0x38376344	4.372305e-05
57	0x39748dc3	0.00023322464
58	0x37b811ec	2.1942855e-05
59	0x38fb335d	0.0001197818
60	0xb882078e	-6.20029e-05
61	0xb908fb65	-0.00013063622
62	0x39e3ea8c	0.00043471565
63	0xb9f0734a	-0.00045862264
64	0xb9b6ddc9	-0.00034878988
65	0x3972b6b5	0.00023146982
66	0x38bc2713	8.971817e-05
67	0xb9d03430	-0.00039711734
68	0x39ac600f	0.00032877966
69	0x39c03b09	0.00036665078
70	0x399486c7	0.00028329177
71	0x39a64817	0.00031715698
72	0x39bab965	0.00035614814
73	0xb9609d0f	-0.00021420814
74	0xb9a4f307	-0.00031461587
75	0x381feeea	3.813106e-05
76	0xb934ad92	-0.00017230798
77	0xb9ebb7b3	-0.0004495956
78	0x39ef1138	0.0004559846
79	0x39fe483a	0.00048500468
80	0x398275c5	0.00024883277
81	0x39da3946	0.00041622872
82	0xb9db5a65	-0.00041838284
83	0x39914a3c	0.00027711864
84	0xb993b354	-0.00028171635
85	0xb9884f42	-0.00025998993
86	0x39a52cc3	0.00031504603
87	0xb9b27965	-0.00034041252
88	0x39fb5101	0.00047934803
89	0xba008656	-0.000490283
90	0x39f2c5d6	0.00046305236
91	0x384dcfcf	4.9069346e-05
92	0x38c1938e	9.230441e-05
93	0x39901b84	0.0002748632
94	0x3989ab5f	0.00026258358
95	0xb956da36	-0.0002048992
96	0xb9b5df0f	-0.00034689202
97	0x394031c3	0.00018329085
98	0xb9dc7377	-0.00042047698
99	0xb94eeaea	-0.00019733203
100	0xb9b46557	-0.0003440778
101	0x39ce1d0d	0.00039313026
102	0xb9eb4132	-0.00044871267
103	0x372efae2	1.0429621e-05
104	0xb9a0635f	-0.00030591615
105	0x391a7e7f	0.00014733708
106	0xb9fed288	-0.00048603513
107	0x39b15ae0	0.00033827778
108	0x3916d605	0.00014384843
109	0x3888dfaf	6.52665e-05
110	0x39859eb7	0.0002548599
111	0xb97bd2bd	-0.00024015731
112	0xb811e592	-3.4784498e-05
113	0x39a0d913	0.0003067931
114	0x397bdb4d	0.00024018921
115	0xba02a694	-0.00049839285
116	0xb94725a2	-0.00018992138
117	0xb9cbc392	-0.00038864888
118	0xb9477bbb	-0.00019024212
119	0xb986cf25	-0.00025712806
120	0xb96a88d6	-0.00022366954
121	0xb9d7233e	-0.00041034253
122	0xb982749e	-0.0002488242
123	0x380090f6	3.0652584e-05
124	0xb9f60240	-0.00046922453
125	0x39ebc055	0.0004496599
126	0x39efc33e	0.000457311
127	0xb936e70f	-0.00017442949
128	0x39e78801	0.00044161084
129	0xb9e121b9	-0.0004294047
130	0x3912d284	0.00014002068
131	0x39b3dcbd	0.00034306003
132	0x38824fe0	6.213761e-05
133	0x3984fb09	0.00025364038
134	0xb9e29fea	-0.00043225224
135	0xb9e2ee69	-0.00043283709
136	0x390277ae	0.0001244235
137	0xb7a38f5d	-1.9497873e-05
138	0x39fab8b1	0.00047821322
139	0xb9c22b86	-0.0003703499
140	0x39c14469	0.00036862798
141	0x39cb6e82	0.00038801512
142	0x38c0874c	9.1804744e-05
143	0xb8dda91f	-0.000105696025
144	0xb8f23453	-0.000115492054
145	0x382bd3c7	4.096681e-05
146	0x395f817a	0.00021315171
147	0x39848629	0.0002527696
148	0xb9235ed6	-0.0001558022
149	0x38a61f54	7.921332e-05
150	0x38b6e0c5	8.720303e-05
151	0xb8e64021	-0.000109791996
152	0x3984828e	0.00025274273
153	0x3937e90b	0.00017539055
154	0xb89133bf	-6.923777e-05
155	0xb9137754	-0.00014063466
156	0x39b06186	0.00033641997
157	0xb9d139e4	-0.00039906718
158	0x397f50a9	0.00024348743
159	0xb90af64e	-0.00013252461
160	0xb9d6d3f2	-0.00040975172
161	0x3961f2c5	0.00021548111
162	0xb9b18b63	-0.00033863922
163	0xb9777cbd	-0.00023602224
164	0xb8a301bb	-7.772768e-05
165	0x3996ea90	0.00028784992
166	0x38a87969	8.033479e-05
167	0xb916ef7d	-0.00014394331
168	0xb9ff0cbb	-0.00048646875
169	0x39ad9b0f	0.0003311266
170	0x37c6cfe0	2.3700239e-05
171	0x385af8e6	5.2207055e-05
172	0xb91d375d	-0.00014993311
173	0xb9702d8e	-0.00022905154
174	0xb8d72c3a	-0.00010260237
175	0xb989a8e2	-0.00026256504
176	0xb8a726b9	-7.970393e-05
177	0x39914511	0.00027708014
178	0xb7fe93b7	-3.0347945e-05
179	0x392c2ec5	0.00016420621
180	0xb9d9a98a	-0.00041515782
181	0x39008323	0.00012255883
182	0x3917c95d	0.00014475496
183	0xb9d1b726	-0.00040000043
184	0xb8c4f821	-9.392226e-05
185	0x34ac7ae2	3.2126906e-07
186	0xb99cc634	-0.00029902312
187	0xb980aeee	-0.00024544395
188	0x3901539a	0.00012333543
189	0xb9dfda55	-0.00042696545
190	0x38b403e0	8.5837906e-05
191	0xb910d717	-0.00013813037
192	0xb9270446	-0.00015927953
193	0xb954e717	-0.00020303983
194	0xb935c642	-0.00017335362
195	0xb9ea6f3e	-0.0004471484
196	0xb940eb75	-0.00018398261
197	0x39f6e5b7	0.00047091927
198	0xb98c4ee8	-0.0002676167
199	0xb9b46705	-0.0003440903
200	0x39a47c48	0.00031373114
201	0x3999c3c7	0.000293283
202	0x39dfb796	0.00042670657
203	0x38b4b70b	8.617163e-05
204	0xba011d64	-0.0004925339
205	0x391f4ec9	0.00015192771
206	0xb9c64fa7	-0.0003782485
207	0x391b3498	0.00014801545
208	0x3805bfae	3.1888187e-05
209	0x39073636	0.00012894798
210	0xb9c1a171	-0.00036932112
211	0xb893afaf	-7.04223e-05
212	0x39310236	0.00016880859
213	0x39097eb9	0.00013112546
214	0xb9b11ebd	-0.00033782973
215	0x389f979e	7.609952e-05
216	0x3920b982	0.00015327896
217	0xb9cb4b4a	-0.00038775272
218	0xb9985a6d	-0.00029059072
219	0x3917de4e	0.00014483297
220	0xb86f66a9	-5.707765e-05
221	0x39b48d4c	0.0003443755
222	0x39b252ff	0.00034012643
223	0xb93738ee	-0.00017473448
224	0xb9fd749c	-0.000483428
225	0xb8f8ec2a	-0.000118695505
226	0xb9206e4a	-0.00015299875
227	0xba02060a	-0.00049600063
228	0xb87f572c	-6.0877923e-05
229	0xb966acd2	-0.0002199889
230	0x39cff8c1	0.00039667453
231	0x38b88c73	8.7999644e-05
232	0x39cebe3a	0.00039433112
233	0xb89d55fc	-7.502359e-05
234	0xb916d186	-0.00014383168
235	0x39bd38f4	0.00036091323
236	0x39caf111	0.0003870805
237	0xb9dff480	-0.0004271604
238	0xb99f8a82	-0.0003043004
239	0x37ffbcce	3.0486288e-05
240	0xb98a157b	-0.00026337415
241	0xb99eb88e	-0.00030273612
242	0x3994dbb5	0.00028392454
243	0xb8c54f1b	-9.4084266e-05
244	0x39a3b444	0.0003122409
245	0xb8f5d605	-0.000117223746
246	0xb9c9c7f6	-0.0003848669
247	0xb959325f	-0.00020713497
248	0xb9508294	-0.0001988507
249	0x374c9f7e	1.2196482e-05
250	0xb9ec518a	-0.0004507418
251	0x39f1b9f7	0.00046105657
252	0x39b669fa	0.00034792704
253	0xb9a47e79	-0.00031374747
254	0x38b54b13	8.644736e-05
255	0x39b74a17	0.0003495968

fc2.bias f4 [64]
0	0x00000000	0.0
1	0x00000000	0.0
2	0x00000000	0.0
3	0x00000000	0.0
4	0x00000000	0.0
5	0x00000000	0.0
6	0x00000000	0.0
7	0x00000000	0.0
8	0x00000000	0.0
9	0x00000000	0.0
10	0x00000000	0.0
11	0x00000000	0.0
12	0x00000000	0.0
13	0x00000000	0.0
14	0x00000000	0.0
15	0x00000000	0.0
16	0x00000000	0.0
17	0x00000000	0.0
18	0x00000000	0.0
19	0x00000000	0.0
20	0x00000000	0.0
21	0x00000000	0.0
22	0x00000000	0.0
23	0x00000000	0.0
24	0x00000000	0.0
25	0x00000000	0.0
26	0x00000000	0.0
27	0x00000000	0.0
28	0x00000000	0.0
29	0x00000000	0.0
30	0x00000000	0.0
31	0x00000000	0.0
32	0x00000000	0.0
33	0x00000000	0.0
34	0x00000000	0.0
35	0x00000000	0.0
36	0x00000000	0.0
37	0x00000000	0.0
38	0x00000000	0.0
39	0x00000000	0.0
40	0x00000000	0.0
41	0x00000000	0.0
42	0x00000000	0.0
43	0x00000000	0.0
44	0x00000000	0.0
45	0x00000000	0.0
46	0x00000000	0.0
47	0x00000000	0.0
48	0x00000000	0.0
49	0x00000000	0.0
50	0x00000000	0.0
51	0x00000000	0.0
52	0x00000000	0.0
53	0x00000000	0.0
54	0x00000000	0.0
55	0x00000000	0.0
56	0x00000000	0.0
57	0x00000000	0.0
58	0x00000000	0.0
59	0x00000000	0.0
60	0x00000000	0.0
61	0x00000000	0.0
62	0x00000000	0.0
63	0x00000000	0.0

fc3.weight f4 [10, 64]
0	0xbad8b97e	-0.0016534773
1	0xbb007778	-0.001960246
2	0xbafcba78	-0.0019281646
3	0xbb08789c	-0.0020823842
4	0xbb01c4ce	-0.0019801143
5	0xbaf0c684	-0.0018369709
6	0xbafe6090	-0.001940744
7	0xbb076c8c	-0.0020664064
8	0xbad5a312	-0.0016299209
9	0xbb081c6c	-0.0020768894
10	0xbb08e0cc	-0.0020885943
11	0xbaf24d94	-0.0018486255
12	0xbad08932	-0.0015910028
13	0xbb118548	-0.0022204686
14	0xbadcd6ae	-0.0016848648
15	0xbaece474	-0.0018073455
16	0xbb01d686	-0.0019811704
17	0xbae69fc1	-0.0017595218
18	0xbb1012a2	-0.0021983762
19	0xbb105f32	-0.0022029397
20	0xbadaea9e	-0.0016702001
21	0xbb1a7a3e	-0.0023571397
22	0xbaef150c	-0.0018240525
23	0xbaf4205c	-0.0018625367
24	0xbb0828c4	-0.0020776251
25	0xbb179c86	-0.0023134067
26	0xbadac3fe	-0.001669049
27	0xbafaf7a0	-0.0019147284
28	0xbb0a5868	-0.0021109823
29	0xbb1f4b8e	-0.0024306509
30	0xbac88aa2	-0.0015300105
31	0xbaeab708	-0.0017907331
32	0xbae12c86	-0.0017179407
33	0xbacdefd2	-0.0015711731
34	0xbad2f04a	-0.001609334
35	0xbaf513dc	-0.0018697935
36	0xbaf64080	-0.0018787533
37	0xbb2069ea	-0.0024477192
38	0xbb0de9dc	-0.0021654284
39	0xbae2ac06	-0.0017293699
40	0xbb0a8d60	-0.0021141395
41	0xbacf6162	-0.0015821869
42	0xbae309d6	-0.0017321657
43	0xbb18e9c6	-0.00233327
44	0xbb001a78	-0.0019547027
45	0xbae9ba90	-0.0017832089
46	0xbae72be1	-0.0017636978
47	0xbb1a40fe	-0.0023537274
48	0xbaeb90e8	-0.0017972263
49	0xbaecdc64	-0.0018071053
50	0xbadd792e	-0.0016897076
51	0xbb16b8cc	-0.002299833
52	0xbb137340	-0.0022499114
53	0xbae6f1b1	-0.0017619637
54	0xbaf13810	-0.0018403549
55	0xbad2cdda	-0.0016083077
56	0xbb13fe70	-0.0022582076
57	0xbb06ad1c	-0.0020549959
58	0xbb152004	-0.0022754679
59	0xbafd2480	-0.0019313246
60	0xbac20cf2	-0.0014804883
61	0xbb063fd0	-0.0020484813
62	0xbac4563a	-0.0014979311
63	0xbaf17390	-0.0018421281
64	0x3acad375	0.0015474396
65	0x3a9909fc	0.0011675949
66	0x3a8d67b4	0.0010788352
67	0x3b0567c4	0.0020356039
68	0x3acb65cd	0.001551801
69	0x3ae0c6a9	0.0017149049
70	0x3ab5e4dc	0.001387741
71	0x3af1d681	0.0018450768
72	0x3b00a3cc	0.001962888
73	0x3aa2481c	0.0012381109
74	0x3ac16515	0.0014754856
75	0x3ac7a5e5	0.0015231936
76	0x3ad0f7e1	0.0015943014
77	0x3b042034	0.0020160796
78	0x3a99347c	0.0011688615
79	0x3ad1fd41	0.001602091
80	0x3ad8be61	0.001653623
81	0x3b066a18	0.0020510014
82	0x3aea3649	0.0017868961
83	0x3ac16745	0.0014755508
84	0x3ae64a41	0.0017569737
85	0x3ad4a139	0.0016222365
86	0x3a96bfec	0.0011501289
87	0x3aaf913c	0.0013394724
88	0x3abd5314	0.0014444315
89	0x3b011fe8	0.0019702855
90	0x3aa864ac	0.0012847385
91	0x3aaf8444	0.0013390859
92	0x3acb42ad	0.0015507542
93	0x3aaac17c	0.0013027634
94	0x3ab054c4	0.0013452996
95	0x3af7dcf1	0.001891045
96	0x3b066350	0.0020505972
97	0x3ad1d631	0.0016009269
98	0x3af1dfb1	0.0018453506
99	0x3ae366e9	0.0017349395
100	0x3ac39c4d	0.0014923901
101	0x3a90bf44	0.001104333
102	0x3ae50fe1	0.0017476046
103	0x3a9748e4	0.0011542109
104	0x3aa7c7dc	0.0012800652
105	0x3af8d3b9	0.0018983997
106	0x3a9b2814	0.0011837506
107	0x3aa0247c	0.0012217904
108	0x3ae49181	0.0017438383
109	0x3acaa215	0.0015459681
110	0x3ac7379d	0.0015199069
111	0x3ae841e9	0.0017719838
112	0x3b0270b0	0.0019903593
113	0x3adcfe51	0.001686046
114	0x3ad6cb59	0.0016387507
115	0x3ad7e061	0.0016470068
116	0x3af02961	0.0018322879
117	0x3b00a554	0.0019629793
118	0x3ac43a7d	0.0014971044
119	0x3ad64a69	0.001634908
120	0x3a8cbd8c	0.0010737642
121	0x3a8f0f5c	0.0010914612
122	0x3aad837c	0.0013238038
123	0x3a9a4004	0.0011768346
124	0x3ab13874	0.0013520853
125	0x3ab10e64	0.0013508317
126	0x3b01fbd8	0.0019833948
127	0x3acf7d61	0.0015830213
128	0x3a1aeac6	0.0005909618
129	0x3a108da6	0.00055142713
130	0x39f9adca	0.00047622464
131	0xb975f024	-0.0002345448
132	0x37c282f4	2.3187582e-05
133	0x3a1b2446	0.0005918186
134	0x3a021125	0.0004961661
135	0x37ffa8f4	3.0477044e-05
136	0x394ee71e	0.00019731789
137	0xb89859c7	-7.264647e-05
138	0x38def33d	0.000106310916
139	0x3998992f	0.0002910583
140	0x38d7323d	0.000102613565
141	0xb9895712	-0.0002619555
142	0x39e5e18b	0.00043846326
143	0xb8c402c7	-9.3465256e-05
144	0xb8f7143f	-0.00011781649
145	0x393e4f9e	0.00018149472
146	0x3a011895	0.00049246225
147	0xb870328e	-5.726754e-05
148	0x3a005395	0.0004895267
149	0x3838d67a	4.4068765e-05
150	0x3a004cd5	0.00048942614
151	0x39506b5e	0.00019876423
152	0x3a217966	0.00061597524
153	0x39f9140a	0.0004750791
154	0x3a198eb6	0.00058577524
155	0x3a253ad8	0.0006303019
156	0x39ce25ec	0.00039319636
157	0x3a215cc6	0.0006155487
158	0x390f441e	0.00013662918
159	0x39cd216c	0.00039125548
160	0x39d88daa	0.00041304278
161	0x382be37a	4.098143e-05
162	0x383d4c7a	4.5132336e-05
163	0x39b3de4c	0.00034307165
164	0x3a3356c7	0.0006841239
165	0x3996774f	0.0002869912
166	0x39b190ab	0.00033867857
167	0x39fd13ea	0.00048270758
168	0xb8d2f3bf	-0.000100589816
169	0x39d3286c	0.00040275173
170	0x3a1ebce6	0.000605537
171	0xb7be837c	-2.2710992e-05
172	0x35415880	7.202689e-07
173	0xb9a1632e	-0.00030782208
174	0x3981162f	0.00024621325
175	0xb9844ef2	-0.0002523582
176	0xb857a19e	-5.1410512e-05
177	0x39faf50a	0.00047866284
178	0x391d95de	0.00015028517
179	0x36af3b90	5.2223404e-06
180	0x38ed363d	0.00011311143
181	0x3a332e37	0.00068351947
182	0x396ff85e	0.0002288534
183	0x3a1cccd6	0.00059814507
184	0xb90e1fb0	-0.0001355398
185	0x384f597a	4.9435977e-05
186	0x39c290ec	0.0003711054
187	0x391c471e	0.00014903813
188	0xb92a64e0	-0.00016250042
189	0x39b94dcc	0.00035343913
190	0x3a09cd05	0.00052566855
191	0x39c49d8c	0.00037501415
192	0xbb1fb02e	-0.0024366486
193	0xbb30555f	-0.0026906354
194	0xbb2c4dff	-0.0026291606
195	0xbb3331ff	-0.0027343032
196	0xbb4d886a	-0.0031361827
197	0xbb272405	-0.0025503647
198	0xbb2c21bb	-0.0026265222
199	0xbb1231df	-0.0022307558
200	0xbb2ea043	-0.0026645816
201	0xbb1e1c1a	-0.0024125637
202	0xbb2127ee	-0.002459045
203	0xbb46f166	-0.0030356287
204	0xbb1067a3	-0.0022034429
205	0xbb471172	-0.0030375388
206	0xbb125b6b	-0.0022332321
207	0xbb141571	-0.0022595788
208	0xbb1d347e	-0.0023987587
209	0xbb4c043a	-0.003113045
210	0xbb3d0bd0	-0.0028846152
211	0xbb38e1c8	-0.0028210748
212	0xbb1d8f20	-0.0024041608
213	0xbb239d37	-0.0024965534
214	0xbb112341	-0.0022146257
215	0xbb20e792	-0.002455209
216	0xbb1e758e	-0.0024178955
217	0xbb2675bb	-0.0025399763
218	0xbb3f080c	-0.0029149083
219	0xbb3bc9bc	-0.0028654179
220	0xbb43e314	-0.0029889988
221	0xbb1d00f2	-0.0023956862
222	0xbb3bf3d0	-0.002867926
223	0xbb3cf864	-0.0028834576
224	0xbb3471ac	-0.0027533574
225	0xbb338d43	-0.002739743
226	0xbb26b0ad	-0.0025434897
227	0xbb3f6330	-0.0029203407
228	0xbb242373	-0.0025045543
229	0xbb25abed	-0.0025279478
230	0xbb130469	-0.0022433049
231	0xbb2c709f	-0.0026312245
232	0xbb22ff32	-0.0024871347
233	0xbb339777	-0.0027403513
234	0xbb3e1ae4	-0.0029007727
235	0xbb3a88e4	-0.002846294
236	0xbb3f6af4	-0.0029208036
237	0xbb4166e4	-0.002951079
238	0xbb2b69b1	-0.0026155526
239	0xbb4e807e	-0.0031509693
240	0xbb401bf0	-0.0029313527
241	0xbb3369a7	-0.0027376206
242	0xbb2de0a9	-0.0026531613
243	0xbb2dcb45	-0.0026518863
244	0xbb31a6fb	-0.0027107585
245	0xbb3a926c	-0.0028468622
246	0xbb1e2fca	-0.0024137371
247	0xbb126bdf	-0.0022342128
248	0xbb415280	-0.0029498637
249	0xbb2a374f	-0.0025972908
250	0xbb3e78b8	-0.0029063653
251	0xbb230bea	-0.0024878928
252	0xbb4c71ee	-0.0031195837
253	0xbb40fa7c	-0.0029446175
254	0xbb40f33c	-0.0029441854
255	0xbb1a2006	-0.0023517623

fc3.bias f4 [10]
0	0xbb007790	-0.0019602515
1	0x3acbb60f	0.0015541929
2	0x39473bb1	0.00019000356
3	0xbb2ebd0c	-0.0026662974
4	0x38739e58	5.8083184e-05
5	0xbbd4400a	-0.0064773606
6	0xb9cb322f	-0.00038756567
7	0x3b7ae79f	0.003828503
8	0xba86d17c	-0.001028582
9	0xb9c7ee1f	-0.00038133652
